best_agent.pth (torch, 337655 bytes, 7 tensors)

shared.0.weight f4 [256, 181]
0.0026034815 0.05893194 -0.04507336 0.06723259 0.07117129 0.06628789 0.04506357 0.055977922
0.012584637 -0.0156816 -0.070659794 0.015176167 -0.0075395857 0.06711183 -0.04316846 0.0049536778
0.046097483 0.05339764 -0.044918407 -0.022636628 -0.053898692 0.034493186 0.06749268 0.016306667
0.0020606015 -0.050562546 0.0662053 0.015155006 0.06010238 -0.05108681 0.04916496 -0.042471636
0.04613369 0.030052602 0.022181537 0.03641677 0.0352319 -0.017024253 0.012704269 -0.026867628
-0.021140195 0.058385987 0.060679033 0.050685644 0.01134409 0.021373874 -0.011806984 -0.051043008
-0.015460124 -0.005426434 0.0058359425 0.004425106 -0.06727763 -0.0018180623 -0.059244197 -0.05695197
0.03999245 0.042276442 0.06798148 -0.038759764 -0.045625366 -0.007837633 -0.003937528 0.046774205
0.0012799242 0.043530826 -0.039247807 0.054513674 -0.012419811 -0.026834127 -0.07378561 0.03815409
0.055283047 0.012854091 0.050295223 -0.023189332 0.071234904 -0.018870661 -0.01985079 0.031943295
0.06558203 -0.053664256 0.0544786 0.032062236 0.022127904 0.008191656 0.01898782 0.030934332
0.047015432 0.03215452 -0.046603046 -0.02316321 0.035352707 -0.05262181 -0.007546512 0.0690067
-0.060032174 0.023782177 -0.01737159 -0.00938464 0.060793903 -0.029501004 -0.0061414954 -0.0031454957
-0.061801914 -0.00746484 -0.060337953 -0.038627956 -0.038843308 0.016025208 -0.0690134 0.0061838487
-0.05076251 0.06939469 -0.026506558 -0.06067471 0.055773865 0.008666068 -0.061420523 0.060260337
-0.043813873 0.039390154 -0.068451084 0.030220233 -0.019655935 -0.044813838 -0.027239287 -0.037704073
-0.061959278 -0.059370376 0.00038079612 -9.147318e-05 0.061899267 -0.053749535 -0.030365549 0.06650868
-0.04568475 -0.038377505 -0.007165557 -0.05380524 -0.06673767 0.066804916 -0.0020927158 -0.056818962
0.06244776 0.071981594 -0.011550423 0.008249513 -0.009311125 -0.056066114 -0.01453334 0.0139879435
-0.029443331 0.061386727 -0.056989897 0.03296688 0.015284658 -0.047974132 -0.012665441 -0.04906462
-0.051288884 0.02837534 0.025320558 0.0021311746 -0.016321199 -0.060594477 -0.06508105 0.013333871
-0.05606223 0.071381 0.050401542 0.047151335 -0.021387206 -0.00068931695 -0.029405553 -0.02363749
-0.0725021 0.050289154 0.05510063 -0.01098933 0.042822033 0.035593092 0.06896798 -0.04813686
-0.046793945 0.04638901 -0.02996445 -0.028881125 -0.029761571 0.053476114 0.010249649 0.06457511
-0.007213315 0.0021135965 -0.0369755 -0.01600307 0.0164678 -0.050755337 0.028116368 -0.032460287
0.041322406 0.05019185 0.070450746 0.046328768 0.022120915 -0.0015088199 -0.064957626 0.020489508
-0.028702825 -0.019015372 0.017272318 -0.035809726 -0.029803986 -0.005131436 0.011463306 -0.014995938
0.05006408 -0.038365915 -0.017541043 0.055178665 0.0584486 -0.02225651 -0.0069356887 0.056541122
-0.020522008 -0.002661975 0.065035194 0.045053367 -0.017709961 -0.010357699 -0.005731018 -0.0060272994
0.028114215 -0.06739623 0.06762023 -0.0016648653 -0.011755596 0.055310905 -0.0018890197 0.042878628
0.0696862 0.016399123 0.057335585 -0.019287275 0.017740376 -0.003365566 -0.043038357 0.066226244
0.020954393 0.0016269662 -0.023970619 0.016143303 -0.020577706 -0.0031811944 0.05106577 -0.05064303
00000000: 2c9f 2a3b 9e62 713d d89e 38bd 3db1 893d
00000010: 41c2 913d f2c1 873d 9494 383d 1b49 653d
00000020: cb2f 4e3c b376 80bc 15b6 90bd 75a5 783c
00000030: a10e f7bb ed71 893d 69d1 30bd 7652 a23b
00000040: b7d0 3c3d 7cb7 5a3d 5dfc 37bd 7370 b9bc
00000050: e0c4 5cbd ba48 0d3d 9a39 8a3d 8f95 853c
00000060: 280b 073b ac1a 4fbd a596 873d b44c 783c
00000070: ea2d 763d 6740 51bd 3261 493d bdf6 2dbd
00000080: aef6 3c3d e030 f63c 0eb6 b53c c029 153d
00000090: 534f 103d 7276 8bbc 9125 503c 8019 dcbc
000000a0: 342e adbc 2526 6f3d 948a 783d c09b 4f3d
000000b0: 90dc 393c 4318 af3c 1572 41bc 7912 51bd
000000c0: 764c 7dbc 3ad0 b1bb 6f3b bf3b 7b00 913b
000000d0: dbc8 89bd 0c4c eeba 0baa 72bd 7846 69bd
000000e0: 20cf 233d 102a 2d3d e039 8b3d 8fc2 1ebd
000000f0: aae1 3abd 6a69 00bc 6106 81bb 4f96 3f3d
00000100: 21c3 a73a 614d 323d 4fc2 20bd bb49 5f3d
00000110: 777c 4bbc 3ed3 dbbc e91c 97bd 7747 1c3d
00000120: 7a70 623d f799 523c 5d02 4e3d 8ef7 bdbc
00000130: 9be3 913d a596 9abc 209e a2bc f9d6 023d
00000140: df4f 863d 0dcf 5bbd f424 5f3d b153 033d
00000150: 9445 b53c 4c36 063c 588c 9b3c ff69 fd3c
00000160: 4193 403d 75b4 033d d6e2 3ebd c6c0 bdbc
00000170: 00ce 103d f889 57bd bb48 f7bb 6253 8d3d
00000180: 4ce4 75bd d7d2 c23c dd4e 8ebc 08c2 19bc
00000190: 0703 793d 17ac f1bc 993e c9bb a924 4ebb
000001a0: 0124 7dbd 9e9b f4bb ee24 77bd 5938 1ebd
000001b0: 291a 1fbd 4c47 833c e656 8dbd e2a1 ca3b
000001c0: 5aec 4fbd ce1e 8e3d 4824 d9bc 0b86 78bd
000001d0: 2373 643d 20fc 0d3c 1694 7bbd 8bd3 763d
000001e0: 2d76 33bd 9257 213d 1530 8cbd 6c90 f73c
000001f0: 7c05 a1bc b78e 37bd ed24 dfbc 966f 1abd
00000200: 03c9 7dbd 5a2e 73bd 97a5 c739 4ad5 bfb8
00000210: 168a 7d3d 7928 5cbd 2cc1 f8bc b435 883d
00000220: ef1f 3bbd bb31 1dbd 0ccd eabb e262 5cbd
00000230: c2ad 88bd 04d1 883d f225 09bb 00bb 68bd
00000240: 39c9 7f3d 166b 933d fc3d 3dbc f728 073c
00000250: b08d 18bc 95a5 65bd 3f1d 6ebc b02d 653c
00000260: 2433 f1bc a670 7b3d 3d6e 69bd 4708 073d
00000270: 816c 7a3c 8680 44bd b682 4fbc fcf7 48bd
00000280: 4b14 52bd 6773 e83c 0f6d cf3c 2dab 0b3b
00000290: 09b4 85bc ea31 78bd 3749 85bd 4f76 5a3c
000002a0: 82a1 65bd 3430 923d d971 4e3d c221 413d
000002b0: 3934 afbc 47b3 34ba eae3 f0bc 69a3 c1bc
000002c0: fb7b 94bd 00fc 4d3d 33b1 613d 970c 34bc
000002d0: 2866 2f3d 10ca 113d 163f 8d3d 282b 45bd
000002e0: 02ab 3fbd 6702 3e3d 0278 f5bc 1c98 ecbc
000002f0: 8ace f3bc c509 5b3d 25ee 273c f53f 843d
00000300: ac5d ecbb 4484 0a3b 9f73 17bd df18 83bc
00000310: 7be7 863c d4e4 4fbd 4c54 e63c 14f5 04bd
00000320: af41 293d f895 4d3d 7b48 903d 3cc3 3d3d
00000330: ec36 b53c 98c3 c5ba 8108 85bd 9dd9 a73c
00000340: 3022 ebbc 20c6 9bbc ad7e 8d3c 38ad 12bd
00000350: 7d27 f4bc 9b25 a8bb 97d0 3b3c 86b1 75bc
00000360: fe0f 4d3d 9425 1dbd 3cb2 8fbc 0603 623d
00000370: cd67 6f3d 4953 b6bc c644 e3bb aa97 673d
00000380: c51d a8bc 8874 2ebb 2c31 853d e189 383d
00000390: 7b14 91bc 57b3 29bc 43cb bbbb a780 c5bb
000003a0: c84f e63c 0907 8abd 7a7c 8a3d 9c37 daba
000003b0: 8b9a 40bc b08d 623d fc98 f7ba 80a1 2f3d
000003c0: a3b7 8e3d 7457 863c b8d8 6a3d 5900 9ebc
000003d0: 4454 913c d490 5cbb fd48 30bd a0a1 873d
000003e0: 8ca8 ab3c ed3f d53a 085e c4bc f63e 843c
000003f0: 9492 a8bc 967b 50bb 572a 513d 116f 4fbd

shared.0.bias f4 [256]
-0.0114917485 -0.013524724 0.059680287 0.07403821 0.0010782664 -0.02901148 -0.032314975 0.06695783
0.07089506 -0.059060734 -0.025445955 0.024699537 -0.06290391 -0.07384932 -0.037253823 0.008467873
-0.058361024 -0.041589607 0.024408504 0.020465923 -0.05864642 0.032340076 0.039089803 0.07378996
-0.02509093 -0.010424792 -0.029942632 -0.05034571 -0.06974699 0.05970439 -0.050264444 -0.03305035
0.0076056174 -0.0035539153 0.05731467 0.061154876 0.03930632 0.050839934 -0.020035869 0.041109633
0.062297955 0.050230626 0.034698956 0.06477305 -0.0659771 -0.056164864 -0.013875519 0.07392862
0.072435446 -0.038678035 0.025457187 -0.07464928 0.0014388304 0.012017064 -0.044626586 0.06695353
0.0385902 -0.0054922006 0.06752144 -0.020281073 -0.0636191 0.0008255434 -0.058206715 -0.058692694
0.051777393 0.058945984 0.058172725 -0.052192524 0.02896616 -0.057814557 0.025335623 -0.032065548
0.043815777 -0.04098914 0.007932235 -0.034336563 0.024144994 -0.010956956 0.039783485 0.037167348
0.063379064 0.04221993 -0.013356623 0.072770335 0.0051623327 0.04282167 0.07080515 0.056853436
0.056177285 0.004419649 -0.017913224 -0.03461124 -0.008314965 -0.039226215 0.05467264 0.011201199
-0.06972088 -0.029715082 0.07398513 -0.030200372 0.06590258 -0.032479655 -0.04067709 0.0409216
-0.05729758 0.053572033 -0.021067927 0.007260313 0.035150144 -0.017552657 -0.06393339 -0.03765174
0.018852906 -0.05360887 -0.050605647 -0.05254324 0.0148446085 0.02553777 -0.04896418 -0.060527094
0.07043908 0.031372536 -0.0647951 -0.010437469 0.0071578445 -0.017904907 -0.03370293 -0.061636914
-0.017405609 -0.012427944 -0.057935804 -0.037432007 0.06992988 0.033081405 -0.056829225 -0.011768501
-0.07359818 -0.044633035 -0.034571722 -0.06744919 -0.037692793 -0.06803085 -0.048753425 -0.0024684023
-0.024890086 0.0014204867 -0.067381665 0.03436253 -0.04166702 -0.04380535 -0.04449656 -0.07280938
0.019920722 0.007667084 0.060805578 -0.072800264 -0.024219826 0.008953129 0.071209274 -0.04701931
0.050801124 -0.014889488 -0.0701098 0.06138065 -0.03489475 0.063838765 -0.004248117 0.0019549683
0.051613666 0.01829877 0.004723464 -0.013163572 -0.014317609 -0.040024642 -0.04173953 0.045548867
0.003201402 -0.005531117 -0.0063977176 0.026083728 0.06850209 0.06953146 -0.039456595 0.0012928848
0.011328777 -0.0028328015 0.040711295 -0.031631976 -0.014339888 0.028842635 0.016657673 0.04978315
0.03750715 -0.03772933 0.028304312 -0.06091075 0.03177627 -0.07120531 -0.019845853 -0.012610709
0.02404217 -0.06021422 0.0045431824 0.018786568 -0.040134158 -0.05616519 -0.022204233 0.045680154
-0.07083836 0.07032103 -0.06087988 -0.057177585 0.036611635 0.0662224 -0.053560637 -0.07302828
-0.05608583 0.045419425 -0.03142046 -0.04946031 0.019339174 -0.048013713 0.025155166 -0.016323043
0.072786175 0.010863388 -0.06840743 -0.014986499 -0.019122655 0.019433947 -0.050956994 0.034967657
-0.05935359 -0.011472119 -0.061581027 0.048356015 -0.008162414 0.07297221 -0.01728804 0.011708497
0.013272117 -0.07225967 0.034267955 -0.03466492 0.017052667 0.013071046 0.028429542 0.008407643
0.01916847 -0.021372287 -0.06287179 0.056376647 0.053041376 -0.009768608 -0.05455216 -0.03554851
00000000: e347 3cbc ce96 5dbc 5173 743d 58a1 973d
00000010: 9e54 8d3a 7ca9 edbc b55c 04bd 3021 893d
00000020: 6e31 913d abe9 71bd 0974 d0bc af56 ca3c
00000030: c4d3 80bd 503e 97bd 7797 18bd d5bc 0a3c
00000040: f80b 6fbd dd59 2abd 58f4 c73c 27a8 a73c
00000050: 3a37 70bd 0777 043d a11c 203d 311f 973d
00000060: 7e8b cdbc bfcc 2abc 404a f5bc 4e37 4ebd
00000070: 83d7 8ebd 978c 743d 17e2 4dbd ce5f 07bd
00000080: 8b38 f93b cee8 68bb cac2 6a3d 897d 7a3d
00000090: aaff 203d 893d 503d 4322 a4bc 9362 283d
000000a0: 242c 7f3d a1be 4d3d 7e20 0e3d bca7 843d
000000b0: 001f 87bd 210d 66bd 2556 63bc e367 973d
000000c0: 0959 943d dc6c 1ebd 978b d03c b9e1 98bd
000000d0: 2397 bc3a 38e3 443c 5eca 36bd ef1e 893d
000000e0: c210 1e3d ebf7 b3bb ae48 8a3d 7e24 a6bc
000000f0: bb4a 82bd 4869 583a 2a6a 6ebd c067 70bd
00000100: 8814 543d 5871 713d 8646 6e3d d4c7 55bd
00000110: 714a ed3c f5ce 6cbd a78c cf3c 2a57 03bd
00000120: 2c78 333d 3ae4 27bd 34f6 013c 7fa4 0cbd
00000130: b9cb c53c ce84 33bc 02f4 223d ca3c 183d
00000140: e2cc 813d ceee 2c3d bdd5 5abc 9d08 953d
00000150: c928 a93b c765 2f3d 4a02 913d 26df 683d
00000160: 271a 663d b4d2 903b c1be 92bc 84c4 0dbd
00000170: 7e3b 08bc abab 20bd 6bf0 5f3d 3c85 373c
00000180: d2c9 8ebd 0b6d f3bc 8485 973d c566 f7bc
00000190: eff7 863d 6309 05bd 059d 26bd 689d 273d
000001a0: deb0 6abd 596e 5b3d a596 acbc ebe7 ed3b
000001b0: 99f9 0f3d 97ca 8fbc 82ef 82bd b638 1abd
000001c0: 6971 9a3c f994 5bbd de47 4fbd 9537 57bd
000001d0: cd36 733c 9634 d13c aa8e 48bd 42eb 77bd
000001e0: 5d42 903d 7d80 003d 4bb3 84bd eb01 2bbc
000001f0: 5a8c ea3b 50ad 92bc 150c 0abd fd76 7cbd
00000200: 3596 8ebc 939e 4bbc 184e 6dbd 4e52 19bd
00000210: 6637 8f3d 5e80 073d c3c5 68bd acd0 40bc
00000220: a5ba 96bd 21d1 36bd 149b 0dbd cd22 8abd
00000230: c263 1abd c253 8bbd acb1 47bd ebc4 21bb
00000240: 4be6 cbbc a02f ba3a 66ff 89bd b9bf 0c3d
00000250: 0aab 2abd 3d6d 33bd 0642 36bd 161d 95bd
00000260: c830 a33c 2a3c fb3b 450f 793d 4e18 95bd
00000270: a868 c6bc 25b0 123c 2bd6 913d 5297 40bd
00000280: d714 503d 0af3 73bc ba95 8fbd 476a 7b3d
00000290: cced 0ebd e6bd 823d ca33 8bbb ed1e 003b
000002a0: da68 533d 4de7 953c 4ac7 9a3b 06ac 57bc
000002b0: 6894 6abc e1f0 23bd 12f7 2abd 7391 3a3d
000002c0: 9dce 513b 5f3e b5bb f2a3 d1bb 8bad d53c
000002d0: d34a 8c3d 8366 8e3d 3d9d 21bd 0476 a93a
000002e0: 569c 393c 86a6 39bb e3c0 263d 8890 01bd
000002f0: d9f1 6abc 6447 ec3c ac75 883c 6be9 4b3d
00000300: 19a1 193d 128a 1abd 72de e73c 8d7d 79bd
00000310: d627 023d 17d4 91bd c593 a2bc 269d 4ebc
00000320: 16f4 c43c 30a3 76bd fade 943b 4ae6 993c
00000330: b763 24bd 780d 66bd a7e5 b5bc 1d1b 3b3d
00000340: b413 91bd 7904 903d 2e5d 79bd 0b33 6abd
00000350: 15f6 153d 9c9f 873d 6662 5bbd da8f 95bd
00000360: 41ba 65bd b809 3a3d beb2 00bd e596 4abd
00000370: 306d 9e3c 07aa 44bd 3512 ce3c e7b7 85bc
00000380: eb10 953d 5afc 313c 3219 8cbd ef89 75bc
00000390: 1da7 9cbc f133 9f3c 48b8 50bd 3f3a 0f3d
000003a0: c01c 73bd 8ef5 3bbc 633c 7cbd f510 463d
000003b0: a5bb 05bc 7472 953d a69f 8dbc ffd4 3f3c
000003c0: 4b73 593c e1fc 93bd 8e5c 0c3d cefc 0dbd
000003d0: 09b2 8b3c f127 563c 12e5 e83c 36c0 093c
000003e0: 3207 9d3c ef14 afbc edc2 80bd 33eb 663d
000003f0: ea41 593d 830c 20bc 1672 5fbd 509b 11bd

shared.2.weight f4 [128, 256]
-0.045679264 -0.014650056 -0.031581122 0.0033234349 0.01870443 -0.03141568 -0.03348834 -0.060838025
0.041154116 0.027227707 -0.04165743 -0.023781234 -0.033959262 -0.041524928 0.010889131 0.014859237
0.0035334746 0.059213676 0.009113416 0.061862662 -0.027742352 0.056262743 -0.017572023 -0.033529896
-0.016458929 -0.060089514 -0.057344496 -0.029471591 -0.005437782 -0.052710943 -0.007225287 -0.017098328
0.046541974 0.05930972 -0.043779448 -0.024069944 0.017278025 0.024490014 0.0070389435 0.0070532486
-0.04548179 -0.028707922 -0.047464043 -0.033770233 0.007396929 0.00976727 0.010163648 -0.03654565
-0.024025474 0.023652226 -0.010470055 0.05528293 0.017070184 0.038248487 -0.005238208 -0.0031418556
-0.0533235 -0.057342336 -0.021290174 -0.026233412 -0.033367924 -0.040750206 0.05173523 0.02509965
0.025749773 0.060447153 0.013720162 -0.02086752 -0.060120553 -0.060218632 0.02571299 -0.015378497
0.038142227 0.017610833 -0.0051208115 0.038155217 0.038112894 0.0063416166 -0.0404142 0.050621085
0.0008887463 -0.03242944 -0.031731196 -0.045634877 -0.060963437 0.05340582 0.02491784 -0.04035972
-0.033465397 0.009007074 0.045535907 -0.042653576 -0.058338873 -0.01407868 0.019971944 -0.018189587
-0.040084966 -0.028316874 -0.054818705 -0.011049983 -0.056202788 -0.02683857 -0.060534637 0.016804136
0.014573086 -0.04202328 0.0005828142 -0.034535192 0.0034723952 -0.05759342 0.042968187 0.054438375
0.012123287 0.012777947 -0.058072805 -0.060736213 0.007095357 -0.044307873 -0.018132133 0.041043285
-0.03667009 0.019357368 0.011742724 -0.02331061 -0.013789286 0.0595441 0.03901452 -0.05719351
0.050985165 -0.05582826 -0.058905482 0.0316629 0.0018040687 0.053509466 -0.054977715 0.023804683
0.040752262 -0.02223941 -0.059992835 0.04461246 0.042749863 -0.044854343 0.047653437 -0.011995383
0.026197143 -0.04147487 -0.059800558 -0.026828043 0.040337738 -0.04376351 0.043567747 -0.053587556
-0.03281565 -0.062175713 0.026026614 -0.06025709 0.025102478 0.025124142 0.049531765 -0.007721044
-0.03491679 -0.014287308 -0.06046626 -0.036951087 -0.041422106 -0.052919187 -0.037087172 -0.0182877
-0.002966091 0.060638584 0.025733046 0.03314078 -0.030299753 -0.046599504 0.058327705 -0.0630638
-0.0025651369 0.009206191 -0.034691397 -0.037347864 0.024110273 -0.03678394 -0.02657637 -0.05639045
-0.0627458 0.041258782 -0.05231636 0.039441675 -0.035005078 0.03700404 0.04001741 -0.00045982594
0.03599179 0.05126837 -0.013079677 0.015015623 0.058624245 -0.031640656 0.0059703304 0.04072441
-0.04265198 -0.0071707666 -0.04334656 -0.007801057 0.007138933 -0.018736461 0.055703666 0.023518289
-0.00033338368 -0.006901506 0.006541565 0.017279372 -0.01683298 0.019745516 0.050605316 -0.035758384
-0.025690978 -0.042042993 0.020135932 -0.05343928 0.060195826 -0.033627518 0.05332248 0.006959386
-0.012724219 -0.044042353 0.0016907821 -0.008473203 -0.0060469806 -0.02805256 -0.04574304 -0.039710164
0.058263388 -0.008998327 0.056857273 0.033975847 0.007161014 0.033639513 0.061583474 0.012415223
-0.02140185 -0.008276083 -0.053397663 0.03863422 -0.031392097 -0.025826119 0.021709226 0.036872096
-0.055140004 0.044722173 0.042088337 0.03711941 -0.044272516 -0.044347305 0.013549976 0.003607303
00000000: 2e1a 3bbd ca06 70bc 355b 01bd fccd 593b
00000010: 083a 993c baad 00bd 122b 09bd 4b31 79bd
00000020: 3891 283d a40c df3c fba0 2abd ddd0 c2bc
00000030: de18 0bbd 0b16 2abd 5368 323c 2874 733c
00000040: de91 673b 0a8a 723d 7050 153c b463 7d3d
00000050: ee43 e3bc c373 663d 34f3 8fbc a556 09bd
00000060: e0d4 86bc 6c20 76bd 10e2 6abd 686e f1bc
00000070: 6c2f b2bb 6ee7 57bd 1ac2 ecbb cb11 8cbc
00000080: cca2 3e3d c0ee 723d 1452 33bd 552e c5bc
00000090: a58a 8d3c 489f c83c f0a6 e63b f01e e73b
000000a0: 1d4b 3abd e02c ebbc a869 42bd a852 0abd
000000b0: f061 f23b e606 203c 6e85 263c e4b0 15bd
000000c0: 12d1 c4bc 50c2 c13c 988a 2bbc 5b70 623d
000000d0: c5d6 8b3c 72aa 1c3d 46a5 abbb 97e7 4dbb
000000e0: be69 5abd ccdf 6abd bb68 aebc 74e7 d6bc
000000f0: ceac 08bd b0e9 26bd 52e8 533d c89d cd3c
00000100: 30f1 d23c 6f97 773d 88ca 603c 5cf2 aabc
00000110: f840 76bd d0a7 76bd 0ca4 d23c 17f6 7bbc
00000120: 063b 1c3d 9844 903c 7bcc a7bb a548 1c3d
00000130: 441c 1c3d 56cd cf3b 5c89 25bd 0e58 4f3d
00000140: c1fa 683a bcd4 04bd 92f8 01bd a3eb 3abd
00000150: ccb4 79bd 10c0 5a3d 7f20 cc3c 3c50 25bd
00000160: 0313 09bd 6892 133c dc83 3a3d 84b5 2ebd
00000170: bef4 6ebd 44aa 66bc 349c a33c 5402 95bc
00000180: 2230 24bd caf8 e7bc 9489 60bd fd0a 35bc
00000190: e534 66bd 90dc dbbc 2bf3 77bd d4a8 893c
000001a0: f4c3 6e3c 9a20 2cbd 00c8 183a c674 0dbd
000001b0: 2091 633b 14e7 6bbd 69ff 2f3d c6fa 5e3d
000001c0: c0a0 463c 985a 513c c0dd 6dbd 89c6 78bd
000001d0: 2b80 e83b 2c7c 35bd d789 94bc 011d 283d
000001e0: 6033 16bd 5893 9e3c 8e64 403c e4f5 bebc
000001f0: 75ec 61bc 84e4 733d b0cd 1f3d be43 6abd
00000200: d2d5 503d 2cac 64bd e046 71bd f5b0 013d
00000210: 8076 ec3a be2c 5b3d 5030 61bd 0a02 c33c
00000220: d8eb 263d 6c2f b6bc 0cbb 75bd 8ebb 363d
00000230: 7b1a 2f3d 30b9 37bd 4030 433d 4888 44bc
00000240: 649b d63c 8ee1 29bd 6ef1 74bd 7cc6 dbbc
00000250: 2f39 253d 5e41 33bd 1874 323d a07e 5bbd
00000260: b469 06bd f6ab 7ebd c435 d53c 23d0 76bd
00000270: b6a3 cd3c 25d1 cd3c d2e1 4a3d d000 fdbb
00000280: e804 0fbd 5015 6abc 78ab 77bd 065a 17bd
00000290: 3aaa 29bd cac1 58bd b8e8 17bd 16d0 95bc
000002a0: c062 42bb 2a60 783d 1cce d23c a0be 073d
000002b0: 3037 f8bc 1fdf 3ebd 08e9 6e3d 9827 81bd
000002c0: db1b 28bb 90d5 163c 9118 0ebd 13fa 18bd
000002d0: e882 c53c c2aa 16bd b0b6 d9bc acf9 66bd
000002e0: df80 80bd f8fe 283d ae49 56bd 988d 213d
000002f0: 7c61 0fbd 8c91 173d 4ce9 233d cb14 f1b9
00000300: 216c 133d c8fe 513d 244c 56bc 1604 763c
00000310: fa1f 703d a299 01bd c3a2 c33b a4ce 263d
00000320: d8b3 2ebd c0f8 eabb 2a8c 31bd 02a0 ffbb
00000330: b6ed e93b 357d 99bc 8729 643d 6da9 c03c
00000340: 00ca aeb9 0726 e2bb a05a d63b 788d 8d3c
00000350: 51e5 89bc 59c1 a13c 8547 4f3d 6277 12bd
00000360: e375 d2bc 4635 2cbd 1cf4 a43c 25e3 5abd
00000370: e68f 763d 02bd 09bd ac68 5a3d 900b e43b
00000380: 3e79 50bc c165 34bd 3c9d dd3a 30d3 0abc
00000390: c025 c6bb 7bce e5bc 0e5d 3bbd 20a7 22bd
000003a0: 97a5 6e3d b86d 13bc 2ce3 683d 422a 0b3d
000003b0: f0a6 ea3b 96c9 093d f43e 7c3d 3869 4b3c
000003c0: ef52 afbc 6898 07bc 82b7 5abd ea3e 1e3d
000003d0: 0095 00bd 4c91 d3bc 8cd7 b13c 3207 173d
000003e0: 7cda 61bd 992e 373d d264 2c3d 860a 183d
000003f0: 1957 35bd 85a5 35bd b800 5e3c 8068 6c3b

shared.2.bias f4 [128]
0.03014198 -0.016615305 -0.045531232 -0.00815358 -0.029768374 0.033449985 -0.040614124 0.033857338
0.035116855 0.0018253527 0.04764757 -0.030079652 -0.029895961 -0.025559943 -0.044656545 -0.028131336
-0.051478073 0.04172367 -0.012301557 -0.0012255708 -0.048880786 -0.039529532 0.059109166 0.03580443
-0.009932199 -0.042225976 0.048528675 0.05241382 -0.021193108 -0.020940559 0.0031463008 0.021342013
-0.0070246253 -0.042063024 -0.006542115 0.011957328 0.02633526 -0.044289865 0.060745228 0.06019486
0.060065143 0.034743432 0.015297768 0.031870373 -0.011281498 -0.013728235 -0.034801707 0.020775871
0.042231746 -0.030350804 0.00754549 -0.0068964185 -0.031426333 -0.051861122 -0.039048042 0.034364864
-0.032884333 -0.014794809 -0.010407832 0.03529741 0.018653052 -0.038618345 -0.05305928 -0.0037408771
-0.009179301 -0.028779298 0.030459978 0.05326765 -0.04211596 -0.01983344 -0.013621069 -0.007454217
0.031682275 -0.045197513 0.029255435 -0.006446918 0.01331415 -0.01996764 -0.05671328 -0.017569102
-0.054936647 0.03297615 0.034558807 0.030932672 0.0523806 0.018630195 0.01162488 0.0011550249
-0.032468736 -0.038168192 0.011178251 -0.028528003 0.029402832 -0.012230927 0.04608273 -0.016218523
-0.048718497 -0.048817128 0.016589887 -0.02955027 -0.062362164 -0.018666767 -0.047188126 -0.0017992959
0.050482895 -0.02054256 -0.060778923 0.04679057 0.01579236 -0.056278042 -0.019764371 0.018735334
0.01930006 -0.022161104 0.03066891 0.024284031 -0.0416587 -0.040117938 -0.038700193 0.02848927
0.036095962 0.036562152 0.0034379116 -0.028717998 0.058981482 0.041059114 0.05517064 -0.04028549
00000000: 50ec f63c d21c 88bc f57e 3abd 9896 05bc
00000010: cedc f3bc da02 093d ff5a 26bd fead 0a3d
00000020: b1d6 0f3d ac40 ef3a 192a 433d 9a69 f6bc
00000030: 60e8 f4bc 1663 d1bc c8e9 36bd b073 e6bc
00000040: acda 52bd 70e6 2a3d 788c 49bc 55a3 a0ba
00000050: 3837 48bd b8e9 21bd 741c 723d aaa7 123d
00000060: a9ba 22bc 25f5 2cbd 01c6 463d e0af 563d
00000070: 2b9d adbc 898b abbc 2b32 4e3b 72d5 ae3c
00000080: d42e e6bb 474a 2cbd 3d5f d6bb abe8 433c
00000090: 0bbd d73c 4a69 35bd fdcf 783d e38e 763d
000000a0: de06 763d 214f 0e3d 7da3 7a3c 828a 023d
000000b0: 08d6 38bc 64ec 60bc 3c8c 0ebd 2932 aa3c
000000c0: 32fb 2c3d 40a2 f8bc 2840 f73b 5afb e1bb
000000d0: e6b8 00bd 546c 54bd d7f0 1fbd 2cc2 0c3d
000000e0: b9b1 06bd ed65 72bc 9d85 2abc 0494 103d
000000f0: 49ce 983c 452e 1ebd b054 59bd 8129 75bb
00000100: c764 16bc 90c2 ebbc 3487 f93c 2e2f 5a3d
00000110: c981 2cbd bd79 a2bc e72a 5fbc 8142 f4bb
00000120: 46c5 013d 0721 39bd 18a9 ef3c ab40 d3bb
00000130: 9823 5a3c 2d93 a3bc 2f4c 68bd 14ed 8fbc
00000140: 4005 61bd 0012 073d 898d 0d3d 8466 fd3c
00000150: 0a8d 563d 5a9e 983c 4876 3e3c 3464 973a
00000160: f0fd 04bd 4056 1cbd fc24 373c 8fb3 e9bc
00000170: 35de f03c 3a64 48bc 3fc1 3c3d b5dc 84bc
00000180: 0c8d 47bd 78f4 47bd 84e7 873c 6813 f2bc
00000190: 786f 7fbd 0ceb 98bc 5648 41bd 5ad6 ebba
000001a0: 27c7 4e3d df48 a8bc 52f3 78bd 78a7 3f3d
000001b0: fb5e 813c ce83 66bd e4e8 a1bc d87a 993c
000001c0: 291b 9e3c 348b b5bc 5e3d fb3c 4eef c63c
000001d0: 50a2 2abd b552 24bd 1884 1ebd 5462 e93c
000001e0: 5cd9 133d 32c2 153d 964e 613b 0242 ebbc
000001f0: 9196 713d 9a2d 283d 9cfa 613d 6602 25bd

actor.0.weight f4 [30, 128]
-0.0058701625 -0.022248048 -0.013115298 -0.017651808 -0.03424746 0.038006864 0.03965861 -0.053453136
0.020977182 0.051169135 -0.062984206 0.0066180564 -0.0642485 -0.053856064 -0.030785445 -0.059016913
-0.0028766699 -0.046848867 -0.07790527 -0.063608795 -0.060421173 -0.0045047575 -0.022544686 0.053164877
-0.026116097 -0.015199418 0.042637207 -0.020356368 -0.016154317 0.06176489 -0.045705453 0.06378677
-0.08620043 -0.020532405 0.038102876 -0.061202575 -0.03846685 -0.046165813 -0.045659993 0.014554929
-0.077305175 0.019928627 -0.064789 0.04467596 -0.047466155 -0.04688078 -0.02553526 -0.009278785
-0.014834173 0.007123184 0.01428363 0.007128539 -0.08825179 0.0032904043 0.024768671 -0.022199588
0.04035527 0.06262565 0.0021025531 0.011973424 -0.02192391 0.021995416 0.05094694 0.056704726
0.013693971 -0.074097805 0.08771432 0.06361966 -0.020626962 -0.020392668 -0.0027206528 0.03847198
-0.0007620677 0.018169992 0.04195961 0.0107492795 0.08290176 -0.05001409 -0.051892754 -0.0019200082
0.07462351 0.04889046 0.018238986 -0.072007805 -0.010451428 -0.021773456 -0.022812234 -0.035277665
-0.011728625 -0.025643041 -0.06868991 -0.04343426 0.06630426 0.060157567 -0.07618311 -0.086290374
0.040378418 0.04590819 -0.013959974 -0.0031256417 0.06612829 -0.06771709 0.08618347 -0.026287422
0.0063388837 0.02815786 0.030495834 -0.0046087955 0.023343425 -0.08650544 0.019326584 -0.06305799
0.06903043 -0.066728525 -0.07940273 -0.05187393 0.086808026 -0.004424405 0.053259548 0.0814589
-0.013390039 -0.008057041 -0.0051023606 0.07393664 -0.012156118 -0.015912574 0.048203833 0.025693845
-0.00028510235 -0.06545914 -0.0053972937 0.041122522 -0.03697502 -0.03281608 -0.0759441 0.02084642
0.04544612 -0.074681595 -0.014545559 0.02901335 -0.07261997 -0.0470788 0.06194828 0.031820364
0.049151547 0.058856156 -0.0736722 0.012898427 -0.008804023 -0.08115219 -0.008696853 0.08447307
-0.054980226 0.08448513 0.005009374 -0.0032772545 0.016072921 0.036294978 0.011814655 0.053853475
0.027113277 -0.03510551 -0.047160573 0.0021425558 -0.029618435 -0.07066637 -0.021280143 -0.003640764
0.078879856 0.08326898 0.0023287167 0.08341511 0.014474904 0.07464072 0.06410181 -0.0014962169
-0.063509844 0.016843032 0.082722664 -0.062573604 0.033009283 -0.0084190965 -0.0145956855 0.037840165
-0.0022070697 0.005311609 -0.06301579 0.019750655 0.008276494 -0.0052602226 -0.001848312 0.08199287
-0.07483813 -0.050625615 0.07534816 -0.017856091 -0.035973724 -0.004559152 -0.029419027 0.017077021
-0.014377554 0.03345955 0.005049719 -0.027778098 -0.05921077 -0.010629438 0.063955694 -0.007098578
0.033504773 0.028435424 -0.08567019 0.017806828 0.03967979 -0.06277571 -0.041712776 0.0851179
-0.073993534 -0.0036719034 0.0804428 -0.018036276 0.0628112 -0.061115526 -0.06198127 0.07166945
0.03532592 -0.03587213 0.02891379 -0.0026837531 0.03094205 -0.04253068 -0.027167162 0.023204172
-0.070976205 0.010105223 -0.053334344 -0.056625105 0.06948736 0.038635414 -0.0132225305 0.03455712
-0.07552968 0.04615553 -0.07770532 -0.046135753 0.062710814 0.08366455 0.07733974 0.067168154
0.030127475 0.060909785 0.010987705 -0.053813264 -0.013077012 0.045206603 0.049257483 -0.04392613
00000000: 7e5a c0bb 8a41 b6bc 8ce1 56bc 869a 90bc
00000010: 1147 0cbd 16ad 1b3d 1171 223d adf1 5abd
00000020: 57d8 ab3c ba96 513d ddfd 80bd 48dc d83b
00000030: b894 83bd 2d98 5cbd c231 fcbc b8bb 71bd
00000040: 8386 3cbb 99e4 3fbd cc8c 9fbd 5445 82bd
00000050: 317c 77bd a59c 93bb a2af b8bc 6ac3 593d
00000060: 6df1 d5bc fb06 79bc 5aa4 2e3d 66c2 a6bc
00000070: 0f56 84bc 2efd 7c3d a435 3bbd a3a2 823d
00000080: da89 b0bd 9333 a8bc c311 1c3d 8daf 7abd
00000090: 6a8f 1dbd 5d18 3dbd f905 3bbd cc77 6e3c
000000a0: 2d52 9ebd 5c41 a33c 18b0 84bd 24fe 363d
000000b0: df6b 42bd 1006 40bd 522f d1bc 0c06 18bc
000000c0: 080b 73bc 9969 e93b e305 6a3c 8596 e93b
000000d0: 5bbd b4bd d3a3 573b abe7 ca3c e9db b5bc
000000e0: 914b 253d e041 803d fdca 093b 2e2c 443c
000000f0: c699 b3bc bb2f b43c bdad 503d 3743 683d
00000100: ad5c 603c 97c0 97bd 91a3 b33d 064b 823d
00000110: e0f9 a8bc 860e a7bc fb4c 32bb cb94 1d3d
00000120: 7fc5 47ba 3cd9 943c d7dd 2b3d bf1d 303c
00000130: 66c8 a93d 93db 4cbd 7f8d 54bd c9a8 fbba
00000140: 36d4 983d 5d41 483d ed69 953c d478 93bd
00000150: 773c 2bbc 3f5e b2bc b9e0 babc 507f 10bd
00000160: 6b29 40bc 5b11 d2bc 4cad 8cbd 1fe8 31bd
00000170: 87ca 873d c867 763d e405 9cbd 02b9 b0bd
00000180: d763 253d 3a0a 3c3d 60b8 64bc 91d7 4cbb
00000190: 456e 873d 42af 8abd f680 b03d b858 d7bc
000001a0: 69b6 cf3b 50ab e63c 66d2 f93c 6105 97bb
000001b0: b63a bf3c c429 b1bd c952 9e3c 8c24 81bd
000001c0: d35f 8d3d f7a8 88bd e69d a2bd c279 54bd
000001d0: 68c8 b13d 99fa 90bb af26 5a3d ecd3 a63d
000001e0: e561 5bbc ae01 04bc b431 a7bb 186c 973d
000001f0: 742a 47bc 165b 82bc 6271 453d e67b d23c
00000200: ca79 95b9 710f 86bd c8db b0bb 1770 283d
00000210: 1e73 17bd 276a 06bd 9588 9bbd 1dc6 aa3c
00000220: b625 3a3d aaf2 98bd 7f50 6ebc 68ad ed3c
00000230: c7b9 94bd b3d5 40bd 7bbd 7d3d 1256 023d
00000240: 2253 493d 2713 713d 73e1 96bd ed53 533c
00000250: c03e 10bc 1f33 a6bd 3f7d 0ebc 3800 ad3d
00000260: f232 61bd 8a06 ad3d ad25 a43b 35c7 56bb
00000270: 5cab 833c 0baa 143d 4192 413c 7695 5c3d
00000280: aa1c de3c ccca 0fbd 722b 41bd 1f6a 0c3b
00000290: 5ca2 f2bc 88b9 90bd b253 aebc e299 6ebb
000002a0: c38b a13d ed88 aa3d 629d 183b 8bd5 aa3d
000002b0: 2628 6d3c 3cdd 983d cf47 833d b51c c4ba
000002c0: 7311 82bd 66fa 893c 806a a93d 9726 80bd
000002d0: be34 073d 40f0 09bc be22 6fbc 4afe 1a3d
000002e0: 7ca4 10bb 010d ae3b 6c0e 81bd 20cc a13c
000002f0: 229a 073c f25d acbb 0f43 f2ba e1eb a73d
00000300: bc44 99bd ce5c 4fbd 2350 9a3d f046 92bc
00000310: 2f59 13bd f064 95bb 2c00 f1bc 1ce5 8b3c
00000320: d58f 6bbc e20c 093d 1d78 a53b e58e e3bc
00000330: fe86 72bd 1827 2ebc 34fb 823d 309b e8bb
00000340: 4d3c 093d 68f1 e83c da73 afbd a0df 913c
00000350: 4787 223d 8d90 80bd 04db 2abd 4b52 ae3d
00000360: ec89 97bd 51a4 70bb 32bf a43d d0c0 93bc
00000370: 29a3 803d 4654 7abd 12e0 7dbd 6fc7 923d
00000380: e9b1 103d a8ee 12bd 9ddc ec3c e8e1 2fbb
00000390: 2f7a fd3c a634 2ebd ab8d debc ad16 be3c
000003a0: f95b 91bd 6190 253c 1d75 5abd baef 67bd
000003b0: 644f 8e3d 2b40 1e3d 50a3 58bc c48b 0d3d
000003c0: 4eaf 9abd 950d 3d3d f823 9fbd d8f8 3cbd
000003d0: 876e 803d 5258 ab3d 4c64 9e3d 758f 893d
000003e0: e5cd f63c 8a7c 793d c605 343c 4c6b 5cbd
000003f0: f740 56bc 8f2a 393d 37c2 493d e3eb 33bd

actor.0.bias f4 [30]
0.0649987 0.0016281259 0.07655885 -0.031313505 0.011371028 0.07496999 0.0813452 -0.045080263
0.08615479 -0.070765264 0.067585684 -0.050227746 0.066186175 -0.04074068 0.009616733 -0.0681669
0.055097613 -0.028159589 0.07514748 -0.07469921 0.009701024 0.06423948 -0.075199515 0.017139127
0.08805901 0.053398393 -0.0401547 0.059913293 -0.05450839 -0.07258105
00000000: 0a1e 853d d766 d53a e3ca 9c3d 9742 00bd
00000010: 8c4d 3a3c de89 993d 5098 a63d 15a6 38bd
00000020: ec71 b03d 61ed 90bd 5d6a 8a3d 9cbb 4dbd
00000030: 9e8c 873d b3df 26bd 808f 1d3c 169b 8bbd
00000040: 09ae 613d f0ae e6bc ece6 993d e6fb 98bd
00000050: 0bf1 1e3c fd8f 833d 3402 9abd 5b67 8c3c
00000060: 4858 b43d 46b8 5a3d 4179 24bd a467 753d
00000070: 3144 5fbd 60a5 94bd

critic.weight f4 [1, 128]
0.07219304 0.085701555 0.03417168 0.048654854 -0.04044233 0.04441347 0.0056242635 0.019880705
0.004965951 0.05006342 -0.0327702 -0.056310195 -0.018335622 0.007926996 0.07961309 -0.018629013
-0.07461536 0.025235161 0.04347778 0.07340792 0.015346995 -0.04303579 0.07679402 -0.08363376
0.053171817 -0.004476314 0.08627882 0.08116784 0.07256493 -0.02971302 0.07394035 0.002933462
0.06546309 -0.043248553 -0.07613426 0.028901068 -0.020467978 0.06996631 -0.03216975 -0.009469533
-0.06937916 -0.07520659 -0.026665492 0.079639286 -0.03587472 -0.029715348 0.06847251 -0.07373294
0.031446036 -0.063345335 0.046973106 0.030941185 -0.017781692 0.059454188 -0.05662286 -0.07800575
0.007034982 -0.08588456 -0.04000723 -0.0029693705 -0.0020788205 -0.038276058 -0.030490583 -0.012905753
0.020900246 0.067534275 0.08778546 -0.07158131 -0.08053775 0.058388114 -0.034031127 -0.073872305
-0.019563608 -0.0013130859 -0.07556822 0.0626635 -0.07316817 0.060972773 -0.03650417 -0.06327463
0.08627882 0.06358078 -0.05970036 0.046692915 0.0113652665 0.0468282 -0.08054031 0.05660591
-0.053646848 -0.051752716 -0.083233744 -0.07521317 -0.024603125 -0.00342246 -0.082489565 -0.02560001
-0.03797041 -0.022494826 0.0024502596 0.07459917 -0.006341574 -0.07750944 -0.0048525035 -0.006726572
0.012851802 -0.02145993 -0.08411374 0.05659004 0.0036441993 -0.012686602 -0.031880632 0.08080545
0.04768314 0.025525779 0.08024752 0.08598724 0.029343395 -0.043652933 0.077873096 0.0072252764
0.014106446 0.015038506 -0.032805003 0.035366338 -0.04320235 -0.022779254 -0.07628124 -0.013343568
00000000: f2d9 933d 4c84 af3d 9bf7 0b3d 504a 473d
00000010: dba6 25bd e6ea 353d be4b b83b dcdc a23c
00000020: 6bb9 a23b 4d0f 4d3d 0c3a 06bd 85a5 66bd
00000030: 9634 96bc 3be0 013c 300c a33d df9b 98bc
00000040: f0cf 98bd f8b9 ce3c c215 323d e456 963d
00000050: f671 7b3c 4c46 30bd 2f46 9d3d 2d48 abbd
00000060: b1ca 593d 0bae 92bb f3b2 b03d 533b a63d
00000070: ec9c 943d b868 f3bc 0a6e 973d 533f 403b
00000080: 8311 863d 6525 31bd 47ec 9bbd efc1 ec3c
00000090: 76ac a7bc 7f4a 8f3d 6ec4 03bd 1a26 1bbc
000000a0: a916 8ebd ea05 9abd 9771 dabc ec19 a33d
000000b0: 5ff1 12bd 9a6d f3bc 513b 8c3d 4c01 97bd
000000c0: 8fcd 003d 33bb 81bd df66 403d 5e78 fd3c
000000d0: e9aa 91bc 3c86 733d 5fed 67bd 7bc1 9fbd
000000e0: b585 e63b 3fe4 afbd 9fde 23bd c599 42bb
000000f0: d23c 08bb 5bc7 1cbd 63c7 f9bc a772 53bc
00000100: fe36 ab3c 694f 8a3d ddc8 b33d 3999 92bd
00000110: faf0 a4bd 6028 6f3d 3964 0bbd 5d4a 97bd
00000120: dc43 a0bc da1b acba 83c3 9abd b955 803d
00000130: 32d9 95bd 96be 793d 6685 15bd 2196 81bd
00000140: f3b2 b03d a436 823d 5d88 74bd 1241 3f3d
00000150: 6235 3a3c edce 3f3d 51f2 a4bd 99db 673d
00000160: ccbc 5bbd a8fa 53bd 7476 aabd 5d09 9abd
00000170: 7e8c c9bc 5a4b 60bb 4af0 a8bd 1db7 d1bc
00000180: dc86 1bbd 1247 b8bc 8994 203b 73c7 983d
00000190: facc cfbb 45bd 9ebd c001 9fbb 936a dcbb
000001a0: 5d90 523c bccc afbc d343 acbd f5ca 673d
000001b0: 85d3 6e3b 77db 4fbc 4495 02bd 547d a53d
000001c0: 654f 433d 701b d13c d058 a43d 141a b03d
000001d0: 8f61 f03c 6bcd 32bd ee7b 9f3d 03c2 ec3b
000001e0: b91e 673c 1164 763c 8a5e 06bd 4bdc 103d
000001f0: f3f4 30bd 8f9b babc 5739 9cbd fb9e 5abc
