best_agent.pth (torch, 337655 bytes, 7 tensors)

shared.0.weight f4 [256, 181]
0	0xbd95cf21	-0.07314897
1	0xbd5a0a37	-0.053232398
2	0x3cc26996	0.023731988
3	0x3d030265	0.031984705
4	0xbb0fb49b	-0.0021927718
5	0x3d30c52c	0.043156788
6	0xba59cf37	-0.00083087705
7	0x3ced77a6	0.028987717
8	0xbd993e9e	-0.074826464
9	0xbd96d8b4	-0.073655516
10	0x3a714d7b	0.0009204966
11	0xbd6e2ea4	-0.05814995
12	0xbca64d7d	-0.020300621
13	0x3b6a70bb	0.003577276
14	0x3d8537cd	0.06504784
15	0xbd86956d	-0.065714695
16	0xbc8213c3	-0.015878564
17	0x3d39a1b2	0.04532022
18	0xbd864e65	-0.06557921
19	0xbcee9e09	-0.029128091
20	0xbc5adf67	-0.013358927
21	0xbd3a5e7e	-0.04550027
22	0x3d2316d0	0.039816678
23	0x3d300533	0.04297371
24	0xbc6d50e2	-0.014484616
25	0x3cc71d79	0.024306046
26	0xbd113dd5	-0.03545936
27	0xbd454f43	-0.048171293
28	0x3c774530	0.015092179
29	0xbd8f6027	-0.070007615
30	0xbc8e5ee6	-0.017379235
31	0xbce262a7	-0.027634932
32	0x3d24008d	0.040039588
33	0xbd00ceef	-0.031447347
34	0x3c5b0f79	0.013370388
35	0x3d3a1c30	0.045437038
36	0x3d8357d8	0.06413239
37	0x3c951248	0.018197194
38	0x3cf71de8	0.030165628
39	0x3d6dc7f4	0.05805202
40	0x3b1667aa	0.0022949972
41	0xbd708fad	-0.05873077
42	0x3d67db88	0.056605846
43	0xbd8fdde5	-0.07024745
44	0x3d96177a	0.073286965
45	0xbae3992b	-0.0017364373
46	0x3d8f8fc0	0.0700984
47	0x3bb851b9	0.0056249765
48	0x3d4bb214	0.049730375
49	0xbd899a20	-0.0671885
50	0x3d263d36	0.04058572
51	0xbc8dd217	-0.017312093
52	0xbcea217e	-0.028580423
53	0x3d69c4f8	0.05707261
54	0xbb8110d6	-0.0039387746
55	0xbd4f0c5a	-0.05054889
56	0xbd167835	-0.036735732
57	0x3cffb375	0.031213501
58	0x3d43f961	0.047845248
59	0x3d254e2a	0.040357746
60	0x3c838266	0.01605339
61	0x3cb861ad	0.022507513
62	0xbcb6e019	-0.022323655
63	0xbc8f624b	-0.017502924
64	0x3d8919df	0.06694388
65	0xbd341fe0	-0.04397571
66	0x3d057aae	0.0325877
67	0xbb00f674	-0.0019678148
68	0x3cdf334f	0.027246146
69	0x3d796c08	0.060894042
70	0x3d177745	0.03697898
71	0x3bdf770f	0.006819613
72	0x3d2f2add	0.042765487
73	0xbd9dc9ee	-0.07704531
74	0x3cfc433d	0.03079378
75	0x3d1b8fd9	0.03797898
76	0x3ba0e4e1	0.004910097
77	0x3d7c20d0	0.06155473
78	0x3bcd4ea4	0.006265478
79	0x3d54b923	0.051934373
80	0x38dfb405	0.00010667
81	0x3c5a4b8a	0.013323674
82	0x3b1bf8be	0.0023799385
83	0x3ca3d6ee	0.019999947
84	0x3b429a37	0.002969397
85	0xbc45b768	-0.012067653
86	0x3d2a0426	0.041507863
87	0xbd8d776e	-0.06907545
88	0xbd065225	-0.032793183
89	0x3bca32d4	0.00617061
90	0x3c036702	0.008020164
91	0x3c9e7e44	0.019347318
92	0xbcc289a5	-0.023747275
93	0xbce03253	-0.027367746
94	0xbd33392c	-0.043755695
95	0x3cc55586	0.024088632
96	0x3c73ba86	0.014876014
97	0x3d1a37c6	0.037650846
98	0x3b9b32d9	0.004736286
99	0xbcd65676	-0.026164275
100	0xbc5156d8	-0.012777053
101	0x3c65baff	0.014021634
102	0xbd32b5fd	-0.04363059
103	0x3ca6c7c0	0.02035892
104	0xbd1db12f	-0.038499054
105	0x3d50037d	0.050784577
106	0xbd983c5e	-0.07433389
107	0xbb132154	-0.0022450285
108	0x3d09960f	0.033590373
109	0x3cea0a31	0.028569313
110	0x3caa8109	0.020813482
111	0xbcd2ffcd	-0.025756741
112	0xbd8b14ed	-0.06791101
113	0x3d547408	0.05186847
114	0x3d6ff597	0.058583822
115	0x3c9050c9	0.017616646
116	0xbc485f5d	-0.012229768
117	0xb9a2f012	-0.00031077914
118	0x3d265266	0.040605925
119	0xbbe543e0	-0.0069966167
120	0xbbf23b99	-0.0073923585
121	0xbd747e2e	-0.059690647
122	0xbd059655	-0.03261407
123	0x3b5b8797	0.0033497566
124	0xbb037ab0	-0.002006214
125	0xbc264696	-0.010148665
126	0x3d6b6265	0.057466883
127	0x3bb39203	0.0054800524
128	0xbc1072cf	-0.008816435
129	0xbd0d4101	-0.03448582
130	0x3d1e00f6	0.038575135
131	0xbc8bbef9	-0.017058836
132	0xbcda29f6	-0.026631337
133	0x3ae56f65	0.0017504512
134	0x3c9d9e21	0.01924044
135	0xbcdcd656	-0.026957672
136	0xbd8e59f1	-0.06950749
137	0x3bdcbd1a	0.00673641
138	0x3d0ee72d	0.034888435
139	0x3d90f35a	0.070776656
140	0x3cfa7b78	0.030576453
141	0x3c691feb	0.014228801
142	0x3bc6d3df	0.0060677375
143	0xbd59d21f	-0.053178903
144	0x3d4ef9ed	0.050531317
145	0x3d0b932a	0.034075893
146	0xbd5eca90	-0.054392397
147	0xbcaec966	-0.021336269
148	0x3c9e2374	0.019304015
149	0x3c2d6e33	0.010585356
150	0x3d5d5900	0.054039955
151	0xbd605903	-0.05477239
152	0x3d5a9a47	0.053369787
153	0x3d2f95c5	0.04286744
154	0x3cb6c9f2	0.022313092
155	0xbc4bcbb5	-0.012438704
156	0x3d8c9947	0.06865173
157	0x3d3338b9	0.043755267
158	0xbd97ca61	-0.074116476
159	0x3c70e7eb	0.014703731
160	0x3d86cdd8	0.0658223
161	0x3c9d18ea	0.019176919
162	0x3d7acc1e	0.061229818
163	0x3cd931de	0.026513036
164	0x3caec3d0	0.021333605
165	0x3ce2354f	0.02761331
166	0x3d933dad	0.07189498
167	0x3d23f106	0.04002478
168	0xbd3c6f03	-0.046004307
169	0xbd9649f0	-0.07338321
170	0x3d52f650	0.051504433
171	0x3caf3687	0.021388305
172	0x3c47c878	0.012193792
173	0x3d6e3825	0.058159012
174	0xbd7a2e2d	-0.061079193
175	0xbcd8b422	-0.026453082
176	0x3b18f5b6	0.0023339815
177	0xbccd87f5	-0.025089243
178	0x3d8de77f	0.0692892
179	0xbb2fb671	-0.0026811624
180	0xbd94f74d	-0.072737314
181	0xbbca5287	-0.006174389
182	0x3d26ce6d	0.040724207
183	0xbd600ded	-0.05470078
184	0xbba87541	-0.005140931
185	0xbd129bf9	-0.03579328
186	0x3d3d83f3	0.046268415
187	0x3d820ea9	0.063504525
188	0xbd0809a6	-0.033212326
189	0xbcc0f559	-0.02355449
190	0x3c3cd6c7	0.011525816
191	0xbcb8969e	-0.022532757
192	0x3d7f6fa3	0.062362324
193	0x3d4a43a0	0.0493809
194	0x3d8aab45	0.06770948
195	0x3d95b5c6	0.07310061
196	0xbc50472e	-0.012712283
197	0xbd53a7b7	-0.051673617
198	0xbce8fd3a	-0.02844106
199	0xbd807604	-0.0627251
200	0xbd25b8bb	-0.040459376
201	0x3cf2bc28	0.029630736
202	0x3d109493	0.03529794
203	0xbd014c7d	-0.031567086
204	0xbd0754ee	-0.03303998
205	0xbd8583f7	-0.06519311
206	0xbd43a0d0	-0.047760785
207	0x3c6b04c4	0.014344398
208	0xbd117edd	-0.035521377
209	0x3d432247	0.04764011
210	0x3d63a972	0.055581518
211	0xba8f24ad	-0.0010920964
212	0xbd51d8e8	-0.05123225
213	0x3d965f7b	0.0734243
214	0xbd67ceee	-0.056593828
215	0x3d58c648	0.05292347
216	0x3b9d5915	0.004801879
217	0xbc7b46e3	-0.015336725
218	0xbd5c699b	-0.05381165
219	0x3bf446d1	0.007454731
220	0xbd2b36bf	-0.041800257
221	0x3d730fb6	0.059341155
222	0xbd0653e9	-0.032794867
223	0x3cb97270	0.022637576
224	0x3d0d9cd5	0.034573395
225	0xbd8d32d7	-0.068944626
226	0xbc0af3db	-0.008480991
227	0xbd2d83ed	-0.042362142
228	0x3cdae6ce	0.026721384
229	0xbd5dd657	-0.05415949
230	0x3ce05319	0.027383374
231	0xbd88d0d5	-0.066804565
232	0x3d6007b4	0.054694846
233	0xbd4868db	-0.048928123
234	0x3c77a8a6	0.0151158925
235	0x3bda34ef	0.006659142
236	0x3c87599f	0.016522227
237	0x3d3b9048	0.045791894
238	0x3c37697d	0.011194584
239	0x3ceea5a8	0.029131725
240	0xba1c6ca2	-0.0005967115
241	0xbd3db7d8	-0.046317905
242	0xbaad8270	-0.0013237726
243	0x3d1c8c9d	0.038220037
244	0xbd81eca4	-0.06343964
245	0x3d17d81c	0.037071332
246	0x3c9e78ef	0.019344775
247	0x3d80ad5e	0.06283067
248	0x3bf6d124	0.0075322557
249	0x3c9a88e9	0.018864112
250	0x3d22af6b	0.039718073
251	0x3c29c389	0.010361561
252	0xbb5b0e4a	-0.0033425265
253	0xbd5b88c6	-0.053597234
254	0xbd6fd39e	-0.058551423
255	0x3d96aa90	0.07356751

shared.0.bias f4 [256]
0	0x3d250a1b	0.04029284
1	0xbd82f34e	-0.06394063
2	0x3d0a9026	0.033828877
3	0xbc0b2a0f	-0.008493914
4	0xbce40819	-0.027835893
5	0xbd70734a	-0.0587037
6	0xbac73be4	-0.0015200344
7	0xbd30faee	-0.043208055
8	0x3ba57236	0.0050490154
9	0x3d8af3f5	0.06784812
10	0x3d8cb3e2	0.068702474
11	0xbd8b06e6	-0.06788425
12	0x3d3f0652	0.046636887
13	0x3cf834b3	0.030298566
14	0xbd821632	-0.0635189
15	0xbd79a432	-0.060947604
16	0xbd8306fb	-0.06397816
17	0xbcf467a6	-0.02983458
18	0xbd94f9b6	-0.07274191
19	0xbbdd48a0	-0.0067530423
20	0xbce5da36	-0.028058153
21	0x3d1ec6b7	0.038763728
22	0xbd2b2850	-0.041786492
23	0x3c93d76d	0.018047059
24	0x3ccf38db	0.025295665
25	0x3c9507b6	0.018192153
26	0xbd996de8	-0.07491666
27	0x3c069509	0.008214244
28	0x3b8380e6	0.0040131686
29	0xbd0b2529	-0.033970986
30	0xbc80ae2c	-0.015708052
31	0x3cde8def	0.027167289
32	0x3ccb2188	0.024796262
33	0x3d464688	0.048407108
34	0x3d64d518	0.055867285
35	0xbcebbd38	-0.02877675
36	0xbd67e3c4	-0.0566137
37	0x3d0148f9	0.031563733
38	0xbd3886b9	-0.045050357
39	0xbcb5a88b	-0.022175094
40	0x3d71580a	0.05892185
41	0x3d8c7549	0.06858308
42	0x3c5a9789	0.013341793
43	0xbd3eda10	-0.04659468
44	0xbd4fcbf6	-0.05073162
45	0xbd0ea0d2	-0.03482134
46	0x3c76db13	0.01506688
47	0xbbf92bd3	-0.007604101
48	0xbba013e3	-0.004885183
49	0x3c918b26	0.017766546
50	0xbd953b38	-0.07286686
51	0xbd4cd6f6	-0.05000969
52	0xbd333a59	-0.043756817
53	0x3c6d60da	0.014488423
54	0x3b3dee9e	0.0028981338
55	0x3d2cc551	0.042180363
56	0xbd234832	-0.039863773
57	0x3d840e98	0.06448096
58	0xbc9f399f	-0.019436656
59	0x3d0e5b34	0.034754947
60	0xbd6bc470	-0.057560384
61	0xbd1ecf46	-0.03877189
62	0x3c92f6ed	0.017940009
63	0x3cce6e21	0.025198998
64	0xbd516f6c	-0.05113165
65	0xbd982fbb	-0.07430979
66	0x3d73569c	0.05940877
67	0x3ce07c57	0.02740304
68	0x3c3bd38d	0.011464012
69	0xbcdfdf72	-0.027328227
70	0xbc78ef72	-0.015193807
71	0x3cb1b9d0	0.021695048
72	0x3d6a7154	0.057236984
73	0x3c9f8674	0.019473292
74	0xbce3a1bb	-0.02778708
75	0x3cb1dcff	0.021711824
76	0xbd39b259	-0.0453361
77	0xbd81580f	-0.06315624
78	0x3d23693d	0.039895285
79	0x3d7b9f8a	0.061431445
80	0x3d3d88db	0.046273094
81	0x3c969f9a	0.01838665
82	0x3cbba670	0.022906512
83	0xbd278cef	-0.04090589
84	0xbc885e3a	-0.016646493
85	0x3d265f9c	0.040618524
86	0x3d3d3ec5	0.04620244
87	0xbd7893ab	-0.060687702
88	0x3d8edd1a	0.069757655
89	0xbd7dc517	-0.061955538
90	0xbd97d3b9	-0.0741343
91	0xbc31840d	-0.010834706
92	0x3c52368d	0.012830389
93	0x3c4166df	0.011804312
94	0x3d8e41f8	0.06946176
95	0x3d1a47d3	0.037666153
96	0xbd4f19f2	-0.050561853
97	0xbccf814b	-0.025330206
98	0xbd754dba	-0.05988858
99	0x3d5180f2	0.051148362
100	0xbd0ec79a	-0.034858324
101	0x3d867ba6	0.06566553
102	0xbc84e29f	-0.016221343
103	0x3d970e96	0.07375829
104	0x3d8ad4dc	0.06778881
105	0x3be17d5c	0.006881399
106	0xbc80f65f	-0.015742479
107	0x3d39be9e	0.045347802
108	0xbd9347c4	-0.071914226
109	0x3d81d7db	0.06339999
110	0x3d04370d	0.032279063
111	0xbcbd43df	-0.023103653
112	0xbcb9eeb4	-0.02269683
113	0xbcb3ccd3	-0.021948254
114	0xbd64fb4d	-0.05590372
115	0xbd38bc5c	-0.04510151
116	0xbd405f72	-0.046966024
117	0xbd38760e	-0.04503446
118	0xbd8a092b	-0.0674003
119	0xbb03eb4a	-0.0020129257
120	0xbc999b45	-0.018750796
121	0xbccca6b8	-0.024981841
122	0x3c8876ac	0.01665815
123	0xbd03f0d3	-0.03221209
124	0x3d9809a8	0.07423717
125	0xbd65e164	-0.056123152
126	0x397d0c10	0.00024132454
127	0xbd11acce	-0.03556519
128	0xbd0da998	-0.034585565
129	0x3d6223ce	0.055209927
130	0x3d769687	0.060202148
131	0x3c951b28	0.018201426
132	0x3d8a7e38	0.067623556
133	0x3cda7494	0.026666917
134	0xbce539e6	-0.02798171
135	0x3d404f23	0.04695047
136	0x3d86c855	0.06581179
137	0xbd7d81d5	-0.061891396
138	0xbd64e14e	-0.05587893
139	0x3b7cebd4	0.0038592713
140	0x3d043d7e	0.032285206
141	0x3d01d833	0.031700324
142	0xbd0cfa6a	-0.0344185
143	0xbd062cf6	-0.03275772
144	0xbd4f7500	-0.05064869
145	0x3d8c55be	0.068522915
146	0x3c19103e	0.009342251
147	0x3d2c3da4	0.042050973
148	0x3ca3d84b	0.020000597
149	0x3d0b5485	0.03401615
150	0xbd6c2762	-0.057654746
151	0x3d6f3629	0.05840126
152	0x3d674ce1	0.0564698
153	0xbbf7f330	-0.007566832
154	0x3d4c6421	0.049900178
155	0xbcc47498	-0.023981377
156	0x3cd584d7	0.02606432
157	0xbd369d91	-0.04458386
158	0xbceb8899	-0.028751658
159	0x3d004fac	0.03132598
160	0x3d4fd190	0.050736964
161	0x3b5ce0c5	0.003370331
162	0x3ba60b1e	0.0050672432
163	0x3c50c515	0.0127423005
164	0x3d7450e4	0.059647456
165	0xbcc76111	-0.024338277
166	0xbac19894	-0.0014770203
167	0xbd8e966b	-0.06962284
168	0x3d49cd67	0.049268153
169	0xbc7d66a8	-0.01546637
170	0x3d80e48d	0.062935926
171	0x3c41a484	0.011819009
172	0x3d4adf83	0.049529564
173	0xbd024970	-0.031808317
174	0xbd27b27a	-0.040941693
175	0x3d2a5dad	0.041593242
176	0x3d817161	0.063204534
177	0x3cc782f2	0.024354432
178	0x3c590f52	0.013248282
179	0xbd5194c6	-0.051167272
180	0x3c8316c4	0.016002066
181	0x3d6dc14b	0.058045667
182	0x3d275391	0.04085118
183	0xbd974a2d	-0.07387195
184	0x3c5cdc48	0.0134802535
185	0xbc697fd1	-0.014251665
186	0xbd87689a	-0.06611748
187	0x3c992dcf	0.018698601
188	0xbd5a1ea6	-0.053251885
189	0x3d02f408	0.031971008
190	0x3d271cfc	0.040799126
191	0x3cb92bc7	0.022603882
192	0x3caceb09	0.021108167
193	0xbcfb1547	-0.030649794
194	0xbd225ee5	-0.03964128
195	0x3d8030f1	0.06259335
196	0x3d4777c5	0.048698206
197	0x3d06a540	0.03287244
198	0x3ce84cc6	0.02835692
199	0x3d63874c	0.05554895
200	0xbbc8e486	-0.0061307577
201	0xbd86e8d3	-0.065873764
202	0xbd6d0f6b	-0.05787603
203	0x3b55b5e5	0.0032609638
204	0x3c6c4862	0.014421554
205	0x3cf88b51	0.030339869
206	0xbd703291	-0.058641974
207	0x3d713602	0.058889396
208	0x3d8b041e	0.06787895
209	0xbd924469	-0.071419545
210	0xbc9771c6	-0.018486869
211	0x3d001c52	0.03127701
212	0xbca2f3b7	-0.019891603
213	0xbcbdc9b1	-0.023167463
214	0xbd8c0135	-0.06836168
215	0xbd46b81c	-0.048515424
216	0x3c68f016	0.014217397
217	0x3d851b70	0.06499374
218	0xbd67d518	-0.056599706
219	0x3d309125	0.04310717
220	0xbbaf4cfa	-0.0053497525
221	0xbd8ffe75	-0.07030956
222	0x3c713ed0	0.014724448
223	0x3d922c75	0.07137386
224	0x3b8ce080	0.0042992234
225	0x3d93d100	0.07217598
226	0xbd8745ee	-0.06605135
227	0x3d8e1a83	0.069386505
228	0xbcf7f282	-0.030267004
229	0xbd0d71c5	-0.034532327
230	0xbcc136e4	-0.023585744
231	0xbd2612ac	-0.04054515
232	0xbc204986	-0.009783154
233	0x3c078062	0.008270355
234	0x3d472191	0.048615996
235	0xbd58d617	-0.052938547
236	0xbc86d0ac	-0.016456924
237	0xbd332e0f	-0.043745097
238	0x3d2fbcb9	0.04290459
239	0x3d303424	0.043018475
240	0x3b3a638b	0.002844068
241	0x3d1b588f	0.037926253
242	0x3d2b281c	0.0417863
243	0xbd03e681	-0.032202248
244	0x3d70fa08	0.0588322
245	0xbc45c255	-0.012070258
246	0xbd6f38ab	-0.058403652
247	0x3d3329fa	0.043741204
248	0x3d8ebf1d	0.06970046
249	0x3d11e74b	0.03562097
250	0x3c02f723	0.007993492
251	0xbaafaaf5	-0.001340239
252	0xbc1f7cfd	-0.009734389
253	0x3d8d3f56	0.06896846
254	0x3ce10d0f	0.027472047
255	0xbd69aa44	-0.057047144

shared.2.weight f4 [128, 256]
0	0xbd4586ce	-0.048224263
1	0x3d1d4be8	0.038402468
2	0x3d7c7afe	0.061640732
3	0xbb3364a9	-0.002737323
4	0x3d324801	0.0435257
5	0x3d64f379	0.055896256
6	0x3c1c019a	0.009521866
7	0xbd068452	-0.032841034
8	0xbca6760a	-0.020319957
9	0xbb192432	-0.0023367521
10	0x3d288727	0.041144516
11	0x39f29323	0.00046267462
12	0xbc87caa1	-0.016576113
13	0x3d55552c	0.05208318
14	0x3d5f6a67	0.054544833
15	0x3d0a4578	0.033757657
16	0x3c59270f	0.013253941
17	0xbcb8948c	-0.02253177
18	0x3c1689e9	0.009188154
19	0xbc06e71d	-0.008233813
20	0xbbd1e6b1	-0.0064056744
21	0x3d369e09	0.044584308
22	0x3c7660ee	0.015037758
23	0x3c0008f0	0.007814631
24	0xbd475afd	-0.048670758
25	0x3d11d3e9	0.035602484
26	0x3d1771c5	0.036973733
27	0xbd4fbf2a	-0.050719418
28	0xbcf776a1	-0.030207934
29	0x3d49439c	0.049136743
30	0xbc9b164a	-0.018931527
31	0x3cbca9ac	0.023030125
32	0xbd3c256e	-0.045934133
33	0xbb20b64d	-0.0024522722
34	0xbb8c73e0	-0.0042862743
35	0x3ce8b9c5	0.028408894
36	0xbc896558	-0.016771957
37	0x3d4e895f	0.050423976
38	0x3d01a1f8	0.031648606
39	0x3d310b14	0.043223456
40	0x3a842e58	0.0010084612
41	0x3d6cbe81	0.057798866
42	0xbd1aa5c3	-0.03775574
43	0x3d51434b	0.051089566
44	0xbc4289e9	-0.011873701
45	0x3c0eab1b	0.008707787
46	0xbd2e8d6b	-0.042615335
47	0x3d5f9f63	0.054595362
48	0xbceae1f4	-0.028672196
49	0x3d15caee	0.036570482
50	0x3c58c7e8	0.013231255
51	0x3d0c43fc	0.034244522
52	0x3d667ce8	0.056271464
53	0xbcf2ff37	-0.029662712
54	0x3c67c400	0.014145851
55	0xbc5ab2c8	-0.013348289
56	0x3d1d51cd	0.03840809
57	0x3b9df6f0	0.004820697
58	0xbc2396db	-0.009984697
59	0xbd77a7fc	-0.060462937
60	0x3d2f876e	0.042853765
61	0xbd05f342	-0.03270269
62	0xbd7dc6e6	-0.061957262
63	0xbd25edf7	-0.040510144
64	0x3d33f9b0	0.043939292
65	0xbc8c9707	-0.01716186
66	0x3bb1ac13	0.005422124
67	0xbd2028d1	-0.039101426
68	0xbd01a8e9	-0.031655226
69	0x3ca3c5b1	0.019991728
70	0x3c59027a	0.013245219
71	0xbd36d202	-0.044633873
72	0x3cc2184e	0.02369323
73	0x3d072f76	0.033004247
74	0xbba48dca	-0.0050217854
75	0x3c843296	0.016137403
76	0x3cc67d4f	0.024229674
77	0xbd5e7c4a	-0.05431775
78	0x3d3eadd3	0.04655249
79	0xbc801d9b	-0.015639117
80	0xbbfcab00	-0.0077108145
81	0x3d0719ec	0.032983705
82	0xbd3f41c3	-0.046693575
83	0x3d410040	0.04711938
84	0xbcdffb20	-0.027341425
85	0xbd195e17	-0.037443247
86	0xbd21b8e0	-0.03948295
87	0xbd595697	-0.053061094
88	0x3a8254c0	0.000994347
89	0xbcad6aa6	-0.021169018
90	0xbc38fda0	-0.011290938
91	0x3d28fcea	0.041256823
92	0xbcf48a0d	-0.029850984
93	0xbcba4dc6	-0.022742163
94	0x3d04b6d7	0.032400932
95	0xbc3413af	-0.010991021
96	0xbcc20334	-0.023683168
97	0xbd1dfa10	-0.038568556
98	0x3c194ef0	0.009357199
99	0x3bfd3d91	0.0077282866
100	0xbcb21101	-0.021736624
101	0xbcbeb4d2	-0.023279581
102	0x3ba2894c	0.0049602147
103	0xbc90e1a4	-0.017685719
104	0x3d4b20d0	0.04959184
105	0xbd52b0a6	-0.051437996
106	0x3d386e9e	0.045027368
107	0xbc5f3360	-0.013623089
108	0x3d38e536	0.045140468
109	0xbcf55a29	-0.029950218
110	0xbce4e453	-0.027940905
111	0x3b2de940	0.0026536733
112	0x3cd26b93	0.025686061
113	0x3d2fb7bd	0.042899836
114	0x3cf63bed	0.030057872
115	0x3d78351b	0.06059752
116	0xbcaa55c2	-0.020792846
117	0x3d44233c	0.047885165
118	0x3d74a440	0.059726954
119	0xbc54e917	-0.012995026
120	0x3c92fafc	0.017941944
121	0x3d6618da	0.056176044
122	0x3d30e37b	0.043185692
123	0xbd554f0f	-0.05207735
124	0x3d71764b	0.058950704
125	0x3d30d7d3	0.043174576
126	0x3d43de79	0.04781959
127	0x3d773679	0.060354684
128	0x3d169156	0.036759697
129	0xbd691fe5	-0.056915183
130	0xbd49ab00	-0.049235344
131	0xbca847b3	-0.020542001
132	0x3cccd68c	0.025004648
133	0x3c2f1d38	0.010688119
134	0x3ccc6b0d	0.02495339
135	0x3d31bbf0	0.04339212
136	0xbd53673b	-0.05161212
137	0xbca85a48	-0.020550862
138	0x3ce06ae9	0.027394729
139	0x3c8a3181	0.016869308
140	0x3d397426	0.045276783
141	0x3cc1a049	0.023636
142	0xbc6b4f3f	-0.014362155
143	0xbcaafab8	-0.020871505
144	0x3cfa7997	0.030575557
145	0x3d693b98	0.0569416
146	0x3c51424a	0.012772152
147	0x3d1e08c8	0.038582593
148	0xbc0a5484	-0.008443002
149	0xbc8caffe	-0.017173763
150	0xbd45a71b	-0.048255067
151	0xbc283ed9	-0.01026889
152	0x3d37a07b	0.04483078
153	0x3bd85ecf	0.006603099
154	0x3d0f73e8	0.035022646
155	0x3c9aedd7	0.018912239
156	0xbd24c6c9	-0.04022864
157	0xbd446865	-0.04795112
158	0xbc0930c0	-0.008373439
159	0xbd60e3d0	-0.05490476
160	0x3d3e7c23	0.046505105
161	0x3d57177e	0.05251264
162	0xbadc2c23	-0.0016797822
163	0xbd801db4	-0.062556654
164	0xbb71e67a	-0.0036911056
165	0xbd5bbed0	-0.05364877
166	0xbcf5f16d	-0.030022347
167	0xbd358d22	-0.044324048
168	0x3d672377	0.056430306
169	0xbc9ef4e2	-0.019403879
170	0xbd18526b	-0.037187975
171	0x3acbf340	0.0015560165
172	0xbd15f2b2	-0.036608405
173	0xbc8879ee	-0.016659703
174	0x3cc48f84	0.023994215
175	0x3d11d720	0.03560555
176	0xbcf00821	-0.029300751
177	0x3cd2d2a2	0.025735203
178	0x3b887aa3	0.00416501
179	0xbd504388	-0.050845653
180	0xbb041240	-0.002015248
181	0x3c9774a9	0.018488245
182	0xbce0537c	-0.027383558
183	0xbd49b844	-0.049247995
184	0xbd6d1f18	-0.05789098
185	0xbd37a0cf	-0.044831093
186	0xbd226b9c	-0.039653406
187	0x3cc38cc4	0.023870833
188	0xbd5a08c1	-0.053231005
189	0xbbddb905	-0.006766441
190	0xbd5fa041	-0.05459619
191	0x3d3cb16f	0.04606765
192	0x3d478326	0.048709057
193	0x3c68edf2	0.014216887
194	0x3cc697b8	0.024242267
195	0x3d734f3a	0.05940173
196	0x3b5c73b4	0.00336383
197	0xbce32052	-0.027725372
198	0x3d6bc83d	0.05756401
199	0x3c8807db	0.016605308
200	0x3d434154	0.047669724
201	0xbd7b7270	-0.061388433
202	0xbb5bbe53	-0.003353019
203	0xbd5aa0cd	-0.053376008
204	0xbbf2482b	-0.007393857
205	0x3c8c6c78	0.017141566
206	0xbd177c7a	-0.036983944
207	0xbd47f5a8	-0.04881826
208	0x3c6045f8	0.013688557
209	0xbd28956b	-0.04115812
210	0x3cc0eab8	0.023549423
211	0xbd03c9ea	-0.032174982
212	0x3d3ef307	0.046618488
213	0x3c9b4748	0.018954888
214	0x3d320009	0.043457065
215	0x3cf4615e	0.029831585
216	0x3d5ede45	0.05441119
217	0x3c66b219	0.014080548
218	0xbbcde7a7	-0.0062837186
219	0xbc2f858b	-0.0107129915
220	0x3ccf55f0	0.025309533
221	0xbcb4b33c	-0.022058122
222	0x3d56df59	0.052459095
223	0x39d7c1a3	0.00041152266
224	0xbc5c4ec8	-0.013446517
225	0x3c842dd6	0.016135138
226	0x3d1c49d5	0.03815635
227	0x3d3e4a9e	0.04645788
228	0x3c4c2560	0.012460083
229	0xbc815ac3	-0.015790349
230	0xbcdfae5c	-0.02730482
231	0xbd577188	-0.052598506
232	0xbd2a2a32	-0.041544147
233	0x3b92f71d	0.0044850246
234	0x3d5027e8	0.050819308
235	0x3cade174	0.021225668
236	0x3d611ed1	0.05496103
237	0xb96907aa	-0.00022223467
238	0xbc3de5d1	-0.011590437
239	0x3d6c6562	0.057713874
240	0xbd21ac91	-0.039471213
241	0x3ce8a99d	0.02840119
242	0x3d4e0615	0.05029877
243	0xbae9b3b5	-0.0017830046
244	0x3cf89e66	0.030348968
245	0x3d1d6a5b	0.038431507
246	0xbc153a4c	-0.009108137
247	0x3cc2fdaa	0.023802597
248	0x3d088f8a	0.033340015
249	0x3ce6c2a8	0.028168991
250	0x3d153764	0.036429778
251	0x3d7086e5	0.058722395
252	0xbd6f70f4	-0.05845733
253	0xbd62a202	-0.055330284
254	0xbcacc2ce	-0.021088984
255	0x3d369038	0.04457113

shared.2.bias f4 [128]
0	0x3c69e9d3	0.014276939
1	0xbd739251	-0.05946571
2	0x3d35718c	0.04429774
3	0x3c597f7f	0.013275026
4	0xbce4fc21	-0.027952256
5	0x3d05c7ff	0.032661434
6	0xbcb04c39	-0.02152072
7	0x3c91718e	0.017754342
8	0x3cfc6ea5	0.030814478
9	0x3d09797d	0.033563126
10	0x3c84fc18	0.016233489
11	0xba95d896	-0.0011432345
12	0x3d80b349	0.06284196
13	0xbcbfda7b	-0.02341961
14	0x3cb9cff6	0.022682171
15	0xbcb80478	-0.022463068
16	0x3be3b448	0.0069489814
17	0xbd3180a8	-0.043335587
18	0xbb1bdf4b	-0.0023784216
19	0x3d1a5654	0.037679985
20	0x3c493557	0.012280784
21	0x3ccd9ba3	0.025098627
22	0xbd47eb08	-0.048808128
23	0xbd4c26a3	-0.049841534
24	0x3d013bba	0.0315511
25	0x3d66c0d1	0.056336228
26	0xbd3cab5b	-0.046061855
27	0xbbe34eaa	-0.0069368677
28	0xbd7abd15	-0.06121548
29	0xbc49e4a8	-0.012322582
30	0xbc233ccd	-0.0099632265
31	0xbd79a023	-0.060943734
32	0x3ce2f3d4	0.027704157
33	0xbcaf1401	-0.021371843
34	0x3cd6c08c	0.02621486
35	0x3a58ff9a	0.00082778337
36	0x3c10d76f	0.008840426
37	0xbd060f39	-0.03272936
38	0xbca50175	-0.020142296
39	0x3d23d89a	0.04000149
40	0x3c524a6f	0.012835129
41	0x3c909c79	0.017652737
42	0xbc8a3691	-0.016871722
43	0xbd04265a	-0.032263137
44	0x3ba3a547	0.004994068
45	0x3d44733a	0.04796145
46	0x3cb87e81	0.02252126
47	0x3cbd1ff1	0.02308652
48	0xbcfdff8e	-0.031005647
49	0x3c09b420	0.008404762
50	0x3b6c4a9a	0.0036055208
51	0xbc2f16a7	-0.010686553
52	0xbcc885be	-0.024477836
53	0xbcd0eef3	-0.025504565
54	0x3cccf07a	0.025017012
55	0xbb4b6a1c	-0.0031038588
56	0x3a02a625	0.0004983864
57	0xbbb995f0	-0.005663626
58	0x3c423a99	0.011854791
59	0x3ca5c0a4	0.02023346
60	0x3d0ad93a	0.03389857
61	0xbc83e96c	-0.016102515
62	0x3c8256dd	0.01591056
63	0x3c142e18	0.009044193
64	0x3d1659f6	0.036706887
65	0xbd25579f	-0.040366765
66	0x3c67bcdf	0.0141441515
67	0xb9271e54	-0.00015937659
68	0xbb5a45c8	-0.0033305753
69	0xbc7cd075	-0.015430559
70	0xbd51694a	-0.051125802
71	0x3c5853b5	0.013203551
72	0x3d37bc95	0.04485758
73	0x3d3f55f4	0.04671283
74	0xbc39bcf6	-0.011336556
75	0xbd2153e4	-0.039386645
76	0xbd56d9c1	-0.05245376
77	0xbd21ad86	-0.039472125
78	0xbc910414	-0.01770214
79	0xbd3cd413	-0.046100687
80	0x3d5abf75	0.053405244
81	0x3d6abb83	0.05730773
82	0xbd227f49	-0.03967217
83	0xbce0a0d8	-0.027420446
84	0x3cdcd992	0.026959214
85	0x3d453565	0.048146624
86	0x3d503c9a	0.050839044
87	0xbc7259f4	-0.014791954
88	0x3cc27e40	0.023741841
89	0x3c79ea99	0.015253686
90	0x3d075b50	0.033046067
91	0xbbebf6d9	-0.0072010574
92	0xbc8aaa36	-0.016926866
93	0xbd5844a2	-0.05279983
94	0x3bed6caf	0.007245622
95	0xbd3522ab	-0.044222515
96	0x3d7bbf08	0.06146148
97	0x3cf1b540	0.029505372
98	0xbd180eda	-0.03712354
99	0x3d45ac32	0.04825992
100	0xbc9d90be	-0.019234058
101	0xbc86b460	-0.016443431
102	0xbd4ccabc	-0.04999803
103	0xbd2adf58	-0.041716903
104	0x3d6d5681	0.057943825
105	0x3d138bc2	0.036021955
106	0xbcd9e054	-0.026596226
107	0x3ce0c978	0.027439818
108	0x3d613fcf	0.054992493
109	0x3ce18dc8	0.027533427
110	0x3d70e0be	0.05880808
111	0x3d3b665a	0.045751907
112	0xbd13463c	-0.035955653
113	0xbd04bca8	-0.03240648
114	0x3c0714c1	0.008244694
115	0xbd52afe7	-0.051437285
116	0xbd548c70	-0.051891744
117	0x3ca58348	0.020204201
118	0x3d3696d2	0.044577427
119	0xbcd7758c	-0.026301168
120	0x3ce27b24	0.027646609
121	0x3cffd328	0.031228617
122	0x3d2c0bfc	0.042003617
123	0x3d736b6f	0.05942863
124	0xbd43f862	-0.0478443
125	0x3c0e180b	0.0086727245
126	0x3c4b2466	0.012398815
127	0x3d18d836	0.03731557

actor.0.weight f4 [30, 128]
0	0xbce94f2a	-0.028480131
1	0x3cda51cf	0.026650338
2	0xbdb4ef28	-0.08834678
3	0x3d402341	0.04690862
4	0x3d190965	0.037362475
5	0x3d0d2a02	0.03446389
6	0xbd1081ed	-0.035280157
7	0x3d637ae8	0.055537134
8	0xbc250859	-0.010072791
9	0x3c22f6c5	0.00994653
10	0xbc77d9e2	-0.015127631
11	0xbd905d21	-0.07049013
12	0xbd2eac76	-0.04264494
13	0x3d0bf08f	0.03416496
14	0x3c156eeb	0.009120683
15	0x3cd0062d	0.02539357
16	0x3d9e06be	0.0771613
17	0xbd81e207	-0.063419394
18	0xbd0414f3	-0.03224654
19	0x3d887479	0.066628404
20	0xbd982415	-0.07428757
21	0x3d67d8b2	0.05660314
22	0xbcb47bd6	-0.022031706
23	0x3cb91827	0.022594525
24	0xbd7ef1ca	-0.062242307
25	0xbd876e95	-0.06612889
26	0x3c5716cd	0.013127995
27	0xbcb9d285	-0.022683391
28	0x3d28a5f6	0.041173898
29	0x3cb5ff17	0.022216363
30	0x3d95a0dc	0.07306072
31	0xbdafc196	-0.085818455
32	0x3d9d7c7e	0.076897606
33	0xbd48d33f	-0.049029585
34	0x3b4b242b	0.00309969
35	0xbc926f28	-0.017875269
36	0x3cee6022	0.029098574
37	0xbd13f9f1	-0.036127035
38	0x3d6772a1	0.056505803
39	0x3c419550	0.011815384
40	0xbcf879b6	-0.030331474
41	0x3d7ac831	0.061226074
42	0x3d6552fa	0.055987336
43	0x3ce1cc1a	0.027563144
44	0xbd313cd8	-0.043270916
45	0x3d2ee786	0.042701267
46	0x3d0e61d7	0.034761276
47	0xbd9f63ce	-0.07782708
48	0xbd88665e	-0.0666015
49	0xbbe158c7	-0.006877038
50	0xbdb40b13	-0.08791175
51	0xba05ddee	-0.00051066175
52	0xbd3dffcc	-0.046386525
53	0x3b241635	0.002503765
54	0x3d320571	0.04346222
55	0x3d3a0fda	0.045425273
56	0xbcfe0eff	-0.03101301
57	0x3dae3e40	0.08507967
58	0xbd9c9da2	-0.076472536
59	0x3d6ec68d	0.05829482
60	0xbd7a66b8	-0.061133116
61	0xbd71f6c0	-0.05907321
62	0xbd06e4c3	-0.032933008
63	0xbce92d4a	-0.028463978
64	0xbcde9907	-0.027172578
65	0x3d1e16df	0.03859603
66	0xbd5b527d	-0.053545464
67	0xbd21a5b0	-0.039464653
68	0x3d22b30d	0.039721537
69	0x3d9c239d	0.0762398
70	0xb9f5e9b7	-0.00046904173
71	0xbc466830	-0.012109801
72	0xbd47fe3b	-0.048826437
73	0x3d9ccd8d	0.07656393
74	0xbd612efb	-0.054976445
75	0x3cd9285c	0.026508503
76	0x3d31b3f8	0.043384522
77	0x3d692268	0.056917578
78	0xbd73db41	-0.05953527
79	0xbd90492a	-0.07045205
80	0x3d873bc1	0.06603194
81	0x3d4fde8f	0.050749358
82	0x39e2ea3c	0.00043280597
83	0x3d93a28c	0.07208738
84	0xbc75ae7f	-0.014995216
85	0x3d4eabb8	0.050456733
86	0xbc9841b7	-0.018586023
87	0xbd532b79	-0.05155513
88	0xbd3eee80	-0.04661417
89	0xbcece771	-0.028918954
90	0x3cd1688c	0.025562547
91	0xbbde15f3	-0.006777519
92	0xbc11687d	-0.00887501
93	0x3d3da141	0.04629636
94	0xbcb7f1bb	-0.022454133
95	0x3c96f176	0.018425684
96	0x39ad3c53	0.00033042076
97	0xbd1e4151	-0.03863651
98	0x3cdade09	0.026717203
99	0x3db4c7d7	0.08827179
100	0xbd913700	-0.070905685
101	0xbb2a0c7f	-0.002594739
102	0x3be701e7	0.0070497873
103	0x3c6aaf32	0.014323996
104	0xbdb2dc8e	-0.08733474
105	0x3ba82317	0.005131136
106	0xbd3907b1	-0.04517335
107	0xbbd98ff9	-0.0066394773
108	0x3d91d0e8	0.07119924
109	0x3d92b591	0.07163537
110	0xbd434ae7	-0.047678854
111	0x3d24ece7	0.04026499
112	0xbd3a04e4	-0.04541482
113	0x3d3efdb1	0.046628658
114	0x3da9e92e	0.082964286
115	0xbdad1848	-0.08451897
116	0x3db3ea4b	0.08784922
117	0x3ce10a1c	0.02747064
118	0x3ce3e0d1	0.027817162
119	0x3d6d29ae	0.057901077
120	0xbbc0aecc	-0.0058802124
121	0xbd81a096	-0.063294575
122	0xbda203e4	-0.07910898
123	0xbd835c9d	-0.06414149
124	0xbd246058	-0.040130943
125	0xbd449122	-0.047989972
126	0xbd5884c6	-0.052860998
127	0x3c93f991	0.018063338
128	0xbd4ac3fc	-0.04950331
129	0x3daee6e8	0.085401356
130	0xbd0796af	-0.033102687
131	0x3d514041	0.051086668
132	0xbda8fe6e	-0.082516536
133	0xbd7e4185	-0.062074203
134	0x3da4e939	0.08052296
135	0x3cdc5cf6	0.026899796
136	0xbd532b8a	-0.051555194
137	0x3bf92534	0.007603312
138	0x3d173ca0	0.03692305
139	0x3daeaee9	0.08529455
140	0xbbf5e03a	-0.0075035365
141	0xbca28837	-0.019840343
142	0x3c9742b0	0.018464416
143	0xbd1c6d69	-0.03819028
144	0xbd24c2d3	-0.04022486
145	0x3cb7c127	0.02243097
146	0xbcba8eb3	-0.022773122
147	0xbdb22ab9	-0.08699555
148	0xb9c68f05	-0.0003787206
149	0xbcefe74e	-0.0292851
150	0x3d7c0b4b	0.061534207
151	0xbc570865	-0.01312456
152	0xbd89e24f	-0.06732618
153	0xbd62e806	-0.055397056
154	0xbd223092	-0.0395971
155	0xbdb434f9	-0.08799166
156	0x3d9a2ff3	0.07528677
157	0xbd8eef3d	-0.06979225
158	0xbda76b88	-0.08174807
159	0xbd8b78d7	-0.06810158
160	0x3da4bbda	0.08043642
161	0xbc9051a8	-0.017617062
162	0x3da582b1	0.08081568
163	0xb9fd1dd9	-0.0004827816
164	0x3aaf1e4c	0.001336047
165	0xbd678ca6	-0.056530617
166	0x3d2a7cd7	0.041622963
167	0xbdb4c69d	-0.08826945
168	0xbcfde60d	-0.030993486
169	0x3d73293d	0.0593655
170	0xbd832170	-0.06402862
171	0xbb1cc29b	-0.0023919705
172	0xbd43d135	-0.047806937
173	0xbbbc8c1f	-0.0057540084
174	0x3cd0261e	0.0254088
175	0x3d06ee13	0.03294189
176	0x3d918794	0.071059376
177	0x3d15e69b	0.036596876
178	0xbbcc7986	-0.0062400727
179	0x3d684b1a	0.056712247
180	0x3d896973	0.06709566
181	0xbc804b07	-0.015660776
182	0xbcca9201	-0.024727823
183	0x3d8017fd	0.062545754
184	0x3ca41ef1	0.020034285
185	0xbd6a69c7	-0.057229783
186	0xbd73c016	-0.05950936
187	0x3d0dd966	0.034631155
188	0x3c988588	0.01861836
189	0x3cf9fedd	0.030517036
190	0xbce88cc5	-0.028387437
191	0x3dacf99e	0.08446048
192	0x3d0e8d2f	0.034802612
193	0xbcaf8101	-0.021423819
194	0x3a369411	0.00069648126
195	0xbbbeb4af	-0.005819879
196	0x3d19ee2c	0.037580654
197	0xbd57d8b8	-0.052696913
198	0xbd346023	-0.044036996
199	0xbd1606c4	-0.036627546
200	0x3cfffc01	0.031248095
201	0xbdb6fe74	-0.08935252
202	0xbbc25ee6	-0.005931723
203	0x3d96829b	0.0734913
204	0x3d920a57	0.071308784
205	0xbda53b8e	-0.08068
206	0x3bdd55b2	0.0067546004
207	0x3b95c3e2	0.00457047
208	0x3daad48d	0.08341322
209	0x3cb955f7	0.022623999
210	0x3c60542f	0.013691946
211	0x3d948e1c	0.07253668
212	0x3da8a852	0.082352296
213	0x3c6c1ab0	0.01441066
214	0xbb23a9bb	-0.0024972993
215	0xbd51868d	-0.05115371
216	0xbd8eaf71	-0.069670565
217	0x3d7c6f9e	0.061629884
218	0x3d298f13	0.04139621
219	0x3d30d027	0.04316726
220	0xbd1b73c2	-0.037952192
221	0xbd3a3b21	-0.045466546
222	0xbd9150dc	-0.07095501
223	0x3d6a83e8	0.0572547
224	0x3d8b6a79	0.068074174
225	0x3da1c22e	0.07898365
226	0xbd6591fe	-0.056047432
227	0xbc664ed4	-0.01405688
228	0x3d9e0e5e	0.07717584
229	0x3d66b4c0	0.05632472
230	0xbd9d9f6c	-0.07696423
231	0xbd8ce95c	-0.06880447
232	0xbdb0c729	-0.08631737
233	0x3da3614d	0.07977543
234	0x3d8cb49b	0.06870385
235	0x3b9d6730	0.0048035607
236	0x3cb33b6e	0.021878924
237	0x3c227bff	0.009917258
238	0x3ce1b261	0.027550878
239	0xbba43e7e	-0.0050123325
240	0x3ce9a62f	0.028521625
241	0xbd8a06c6	-0.06739573
242	0x3c47723c	0.012173232
243	0x3bdae3dd	0.0066799955
244	0x3d4a35d1	0.04936773
245	0xbd697d6d	-0.05700438
246	0xbd74fd9c	-0.059812173
247	0xbcbabcd2	-0.022795115
248	0xbc652264	-0.01398525
249	0xbd61b969	-0.05510846
250	0xbda4a456	-0.08039157
251	0x3d884e21	0.06655527
252	0xbd6833db	-0.05669008
253	0x3dab1d94	0.08355251
254	0x3cfa69f2	0.030568097
255	0x3ccba433	0.02485857

actor.0.bias f4 [30]
0	0x3c896142	0.016770009
1	0x3d6e806d	0.058227945
2	0x3c8d37c6	0.017238509
3	0x3c0aacdd	0.008464065
4	0x3dafecec	0.08590111
5	0x3d7ec113	0.06219585
6	0xbd43fd26	-0.047848843
7	0xbc21c7d1	-0.0098743
8	0xbba20689	-0.0049446267
9	0x3c82e17a	0.015976656
10	0x3c4ad7c1	0.012380541
11	0xbd1bd598	-0.038045496
12	0xbd574405	-0.052555103
13	0x3d0db77e	0.03459882
14	0x3d118f77	0.03553721
15	0x3d3ee39c	0.046603784
16	0x3d78dd8f	0.06075817
17	0x3d00507e	0.031326763
18	0xbcb5aae0	-0.022176206
19	0xbd2a6080	-0.041595936
20	0xbc432397	-0.011910341
21	0x3d1aeca3	0.03782333
22	0xbd80765f	-0.062725775
23	0x3bc0f99c	0.0058891308
24	0xbcbc6367	-0.022996617
25	0x3bbc5d25	0.0057484084
26	0x3d8430f8	0.064546525
27	0xbd1c53a6	-0.03816571
28	0x3d887f16	0.06664865
29	0xbd9a9fa3	-0.075499795

critic.weight f4 [1, 128]
0	0x3d01925e	0.031633727
1	0x3cd3d33e	0.025857564
2	0x3cf02576	0.029314738
3	0xbd15e2f1	-0.03659338
4	0xbb586e93	-0.0033024892
5	0x3d16f867	0.03685799
6	0x3d8457c6	0.06462054
7	0x3d7d2ff0	0.061813295
8	0x3d1ff489	0.039051566
9	0xbda865ec	-0.08222565
10	0x3ce86895	0.028370181
11	0x3cfe3111	0.031029256
12	0x3d361448	0.044452935
13	0x3c40b216	0.011761209
14	0xbd397069	-0.04527322
15	0xbd6e7fa2	-0.05822719
16	0xbd348510	-0.04407221
17	0x3cb3921a	0.021920253
18	0x3d855365	0.06510047
19	0x3d27a40d	0.040927935
20	0xbc90bf85	-0.017669449
21	0xbd54cab0	-0.05195111
22	0x3d7f82fa	0.06238077
23	0xbd58fab6	-0.05297347
24	0x3ca593c3	0.02021206
25	0x3db18029	0.08667023
26	0x3d712bf0	0.058879793
27	0xbb82ff82	-0.003997744
28	0xbdb4e771	-0.088332064
29	0xbd8c5ac7	-0.06853252
30	0xbdb268af	-0.08711373
31	0x3cbabcc4	0.022795089
32	0xbd785cee	-0.0606355
33	0x3d50ab9f	0.05094492
34	0x3d5f476d	0.054511476
35	0xbd14e468	-0.036350638
36	0x3d887795	0.066634335
37	0xbd19dc0b	-0.037563365
38	0x3daa999c	0.0833008
39	0xbcfa1893	-0.030529296
40	0xbdb15382	-0.08658506
41	0xbd9febfc	-0.07808682
42	0xbd3054af	-0.04304951
43	0xbd934748	-0.0719133
44	0x3d510626	0.051031254
45	0xbba268e1	-0.00495635
46	0xbbb985af	-0.0056616883
47	0x3d7f51dd	0.06233393
48	0xbd0eefb2	-0.03489656
49	0xbd9301d3	-0.07178082
50	0xba99976d	-0.0011718102
51	0xbda98ec9	-0.08279187
52	0x3d9d3c06	0.07677464
53	0xbb1a0b64	-0.0023505324
54	0xbbf70f92	-0.007539698
55	0x3dad244b	0.08454188
56	0xbc694d95	-0.014239688
57	0x3b583f36	0.003299666
58	0x3cfd5215	0.030922929
59	0x3d193c7e	0.037411205
60	0x3cf2fb09	0.029660719
61	0xb9a40c6a	-0.00031289767
62	0xbc30b62f	-0.010785623
63	0xbd71d355	-0.059039433
64	0xbcb57047	-0.022148265
65	0xbd571b23	-0.052516114
66	0xbbce5cf5	-0.0062977024
67	0x3be574b5	0.007002438
68	0xbc4fa07d	-0.012672541
69	0x3d8ecc81	0.069726
70	0x3dade2e1	0.08490539
71	0xbd5efb47	-0.054438855
72	0xbd82bf18	-0.063841045
73	0x3ca12714	0.019671954
74	0x3d0f309c	0.034958467
75	0xbd86ee8c	-0.06588468
76	0x3d78c013	0.06073005
77	0x3cd178d9	0.02557032
78	0xbb7332e2	-0.0037109186
79	0xbda0b1ed	-0.07846437
80	0x3da5b8c2	0.080918804
81	0xbbffa220	-0.007801309
82	0x3db2c38d	0.087287046
83	0x3d0be5d8	0.034154743
84	0x3d76851c	0.060185537
85	0xbd36b9d9	-0.044610832
86	0x3cc2aa50	0.023762852
87	0x3c0047c2	0.007829608
88	0x3d33e210	0.043916762
89	0x3c991ea8	0.018691376
90	0x3db0cef0	0.0863322
91	0xbdb09170	-0.0862149
92	0xbd49b39c	-0.049243554
93	0xbd1fa4ba	-0.038975455
94	0xbcc2f3d2	-0.023797903
95	0xbcd1fb2b	-0.025632462
96	0x3dad8fd4	0.08474699
97	0x3b7c1367	0.0038463713
98	0x3da35bb8	0.07976478
99	0x3cbc251f	0.02296692
100	0xbd785218	-0.060625166
101	0xbd78e89d	-0.060768712
102	0x3b87a428	0.004139442
103	0x3d8264b7	0.06366866
104	0xbcab1946	-0.020886075
105	0xbbd5c85c	-0.006524129
106	0x3ca9d651	0.020732077
107	0x3c041d4a	0.008063624
108	0x3d1f072d	0.038825203
109	0x3d721397	0.059100714
110	0x3d608598	0.054814905
111	0x3d863a0f	0.065540425
112	0xbdaa12ee	-0.08304392
113	0x3d611fdd	0.054962028
114	0x3d1d72b7	0.03843948
115	0x3ac531d6	0.001504476
116	0xbd9ca523	-0.07648685
117	0xbcb06393	-0.021531856
118	0xbd13f89e	-0.03612577
119	0xbd5a5ab4	-0.053309157
120	0xbd848f0a	-0.06472595
121	0x3a929e9a	0.0011186183
122	0x3d8d8991	0.06911004
123	0xbd40b3b5	-0.047046382
124	0x3cc36faa	0.023856957
125	0x3d105bc5	0.03524377
126	0x3cc59795	0.024120132
127	0x3b81ba2a	0.00395896
